net_model.pt (torch, 309353 bytes, 8 tensors)

weight f4 [32, 3, 3, 3]
0	0x3dc99601	0.09843064
1	0x3df218b5	0.11821119
2	0x3b8ad655	0.004236976
3	0xbc82c9f7	-0.015965445
4	0x3ca077a9	0.019588308
5	0xbd3d2504	-0.04617788
6	0x3de8610f	0.113466375
7	0xbe1ad98e	-0.15122053
8	0x3e2a1ad1	0.16611792
9	0x3d3b7f9f	0.045776006
10	0xbd55380b	-0.0520554
11	0xbe613d56	-0.21996054
12	0x3d70ee39	0.058820937
13	0x3d88082e	0.06642185
14	0x3db9f500	0.09079933
15	0x3de5fb57	0.1122958
16	0x3ce0af9b	0.027427485
17	0x3da9bb23	0.082876466
18	0x3d6c45d6	0.05768379
19	0xbdfbffd5	-0.123046555
20	0x3e1e8730	0.15481257
21	0xbd85cb10	-0.06532872
22	0xbe824459	-0.2544277
23	0x3c827865	0.01592655
24	0x3d804673	0.06263437
25	0xbd580649	-0.05274037
26	0xbe4946d5	-0.19655927
27	0xbc5bb809	-0.013410577
28	0xbe2cb40d	-0.16865559
29	0x3d4f6b6a	0.050639547
30	0xbe418803	-0.1889954
31	0x3dd55b25	0.10417775
32	0xbcd65348	-0.026162758
33	0xbd78c8b7	-0.06073829
34	0xbdf30e90	-0.11868012
35	0x3e13f56d	0.14449091
36	0xbe0b1ccb	-0.13585202
37	0xbd15b6fe	-0.036551468
38	0x3da29c88	0.07940012
39	0x3e0c8eaf	0.13726304
40	0xbdbbb54e	-0.091654405
41	0x3d64afe3	0.0558318
42	0x3e5d2e8d	0.21599789
43	0x3e60fbb5	0.21971019
44	0x3dfcef41	0.123503216
45	0x3e8611d2	0.2618547
46	0x3e339531	0.17537381
47	0xbe06f83f	-0.13180636
48	0x3cae4cc6	0.021276843
49	0xbe573b93	-0.2101882
50	0x3d52504e	0.051346116
51	0xbd99e245	-0.075138606
52	0xbe779f0f	-0.2418177
53	0xbe1e090e	-0.15433142
54	0xbda5b6db	-0.080915175
55	0xbd24ea42	-0.04026247
56	0x3b44dfec	0.0030040694
57	0xbde946cb	-0.11390456
58	0x3c0423e2	0.008065196
59	0x3e520a6d	0.2051179
60	0x3dcb949c	0.09940454
61	0x3cd1330f	0.025537042
62	0xbde6171b	-0.11234876
63	0x3e3e0535	0.18556674
64	0x3c92dbe0	0.01792711
65	0xbce18bd7	-0.027532501
66	0x3dcbf3a9	0.09958584
67	0xbd6018ec	-0.054711267
68	0xbd8bc650	-0.068249345
69	0x3c680ab6	0.01416271
70	0xbd2295a2	-0.039693482
71	0xbd3baa43	-0.04581667
72	0x3e03cc25	0.12870844
73	0x3e2b244a	0.16713062
74	0xbe5bdd6f	-0.21471189
75	0x3dee5b04	0.116384536
76	0x3e69cfba	0.22833148
77	0xbe62f157	-0.22162376
78	0x3d113d5d	0.03545891
79	0x3e3e81db	0.18604223
80	0x3dcc5033	0.09976234
81	0xbe1270c1	-0.14300825
82	0x3d7ebe8e	0.062193446
83	0x3c7fa69b	0.015603687
84	0xbe22d5a5	-0.15901811
85	0xbc3e3f36	-0.01161175
86	0x3e24218e	0.16028425
87	0x3d4bc29f	0.049746152
88	0xbdcbfb2d	-0.09960017
89	0x3e1fd272	0.15607622
90	0x3e287001	0.16448976
91	0xbd960ef1	-0.073270686
92	0xbdad2759	-0.084547706
93	0x3d0311f4	0.031999543
94	0xbe2ef73d	-0.17086501
95	0x3d415b50	0.047206223
96	0x3e2b4409	0.16725172
97	0xbdac400f	-0.08410656
98	0x3e3e353e	0.18574998
99	0x3e5ec3b8	0.21754348
100	0x3d0a279d	0.033729184
101	0x3de38a14	0.11110321
102	0xbd0e34be	-0.034718268
103	0xbdd8329d	-0.10556529
104	0x3dd8997d	0.105761506
105	0x3d687925	0.056756157
106	0xbe47bc8b	-0.19505517
107	0xbca87fa1	-0.02056867
108	0xbe30c082	-0.17260936
109	0x3d822b9d	0.06355975
110	0x3cd26a79	0.025685536
111	0x3d9c92bb	0.07645174
112	0x3dcfe637	0.10151332
113	0x3c5bd261	0.013416857
114	0x3de2856b	0.11060604
115	0xbe36b6d5	-0.17843182
116	0x3e04f0c4	0.1298247
117	0x3dbb46d5	0.091443695
118	0xbc3c2888	-0.011484273
119	0x3db5f643	0.08884861
120	0x3d5a7061	0.05332983
121	0x3dc98c85	0.09841255
122	0xbde76c74	-0.11299983
123	0xbe1f6156	-0.15564474
124	0xbd7bcf67	-0.06147709
125	0xbe5b9a04	-0.21445471
126	0xbd5667bb	-0.05234502
127	0xbe53aca9	-0.20671333
128	0x3e1ca4a5	0.15297182
129	0xbdd2c3d7	-0.1029126
130	0x3cc81afe	0.024426933
131	0x3e0ee78b	0.13955514
132	0xbd9f7c07	-0.07787328
133	0xbe37b5d9	-0.17940463
134	0xbd1840b0	-0.037171066
135	0xbd00010c	-0.031251
136	0xbe21484b	-0.15750234
137	0xbe18ea4e	-0.1493313
138	0xbdc0f3a6	-0.09421472
139	0xbdec482e	-0.11537205
140	0x3db9e11a	0.09076138
141	0xbcdb688e	-0.026783254
142	0xbda7f076	-0.08200161
143	0xbe18e196	-0.14929804
144	0xbcf0a82d	-0.029377067
145	0x3ddf7b42	0.109121814
146	0xbdea1af6	-0.11430924
147	0x3d83d301	0.0643673
148	0xbe1e9e7a	-0.15490142
149	0x3e6acaef	0.22928976
150	0x3df55591	0.11979211
151	0xbe0737bd	-0.13204856
152	0xbe4446aa	-0.19167581
153	0xbd7841e6	-0.06060972
154	0xbe50171b	-0.20321314
155	0xbc8ac976	-0.016941767
156	0xbdbd20ba	-0.09234758
157	0xbe413fa5	-0.18871935
158	0xbdfbf680	-0.123028755
159	0xbcc71a56	-0.02430455
160	0x3dd1c94f	0.10243475
161	0xbdf1a96d	-0.117998935
162	0xbe06b1c7	-0.13153754
163	0x3e298de1	0.16558029
164	0x3d8e0205	0.06933979
165	0xbe1f152d	-0.15535422
166	0x3d73c59e	0.059514634
167	0xbc96c26b	-0.018403253
168	0xbdd0df5d	-0.10198853
169	0xbe479098	-0.19488752
170	0xbe438577	-0.19093882
171	0xbc766cd9	-0.0150406
172	0x3d2c2333	0.042025756
173	0x3c76c865	0.015062426
174	0x3e15b022	0.1461797
175	0x3e10b340	0.14130878
176	0xbce2cdcb	-0.02768602
177	0x3e24f516	0.16109118
178	0xbb824270	-0.003975205
179	0x3e27888e	0.16360685
180	0x3b754a0f	0.0037428176
181	0x3c8941c2	0.016754989
182	0xbdb030f0	-0.08603084
183	0xbe261d38	-0.16222084
184	0xbda668fe	-0.081254944
185	0xbcf1254e	-0.029436734
186	0xbe29f218	-0.16596258
187	0x3ebc9543	0.36832628
188	0x3e9b92f5	0.30385557
189	0x3dc6e3d6	0.09711425
190	0x3de588cd	0.11207733
191	0x3cb15336	0.021646123
192	0x3d8833c5	0.06650499
193	0xbdc0ab40	-0.09407663
194	0x3e1b8034	0.15185624
195	0xbe08ce6f	-0.13359998
196	0xbe2d792c	-0.16940755
197	0x3d8cfcaa	0.06884129
198	0xbe3a7c83	-0.1821156
199	0xbdf59eb1	-0.119931586
200	0x3d07bc03	0.033138286
201	0xbd8a5b3e	-0.06755684
202	0x3d3a5e86	0.0455003
203	0xbc9ac16e	-0.018891063
204	0x3d74afcd	0.05973797
205	0xbd906462	-0.070503965
206	0x3e2750b4	0.1633938
207	0xbd2b10f9	-0.041764233
208	0x3ccf10c0	0.025276542
209	0xbcef94b4	-0.029245712
210	0xbbb02525	-0.0053755217
211	0x3dfd96f9	0.123823114
212	0x3df67b36	0.12035219
213	0x3da31029	0.07962067
214	0x3ec83573	0.3910328
215	0x3e14e71d	0.14541288
216	0x3e455715	0.192715
217	0x3c843834	0.016140081
218	0x3dc80007	0.0976563
219	0x3e4381ea	0.19092527
220	0xbdf8b3d2	-0.12143673
221	0xbd689b2b	-0.056788605
222	0xbe0b1bb9	-0.13584794
223	0xbdce383b	-0.10069319
224	0x3b567fbb	0.0032729942
225	0x3e44a791	0.19204547
226	0x3d08ed42	0.03342939
227	0x3e1662a5	0.14686067
228	0xbe31ae12	-0.17351559
229	0xbe09b71a	-0.13448754
230	0xbdd59132	-0.104280844
231	0xbd545142	-0.051835306
232	0xbcc5b86e	-0.024135794
233	0x3e2f9390	0.17146134
234	0x3de2078b	0.11036595
235	0x3dd9b8b8	0.106309354
236	0xbc193ca1	-0.009352834
237	0x3d741c4b	0.059597295
238	0xbe2d7c01	-0.16941835
239	0xbd642256	-0.055696808
240	0xbdfec73a	-0.12440343
241	0xbe966791	-0.2937589
242	0xbe5c9200	-0.2154007
243	0xbddc3650	-0.10752547
244	0x3e148e76	0.1450747
245	0x3b80392c	0.0039130654
246	0xbdf58eb0	-0.11990106
247	0x3e14f951	0.14548232
248	0xbdb181ef	-0.08667361
249	0xbcc70016	-0.024292033
250	0x3d42de6a	0.04757539
251	0xbd3466c0	-0.044043303
252	0xbd3a9af2	-0.045557924
253	0xbddd330d	-0.10800753
254	0x3dfc2e75	0.123135485
255	0x3de9db48	0.11418778

bias f4 [32]
0	0xbd29b337	-0.04143068
1	0x3d501ee0	0.050810695
2	0x3e7b3e77	0.24535547
3	0x3e277ed4	0.16356975
4	0x3c3dfb98	0.011595629
5	0xbdfd29e3	-0.12361505
6	0x3c45b6fe	0.0120675545
7	0x3ddbaf62	0.10726811
8	0xbd806f26	-0.062712
9	0x3e01b826	0.12667903
10	0x3da63679	0.081158586
11	0xbd4dbefd	-0.05023097
12	0x3e236e70	0.15960097
13	0x3e84860e	0.25883526
14	0x3dccf4e9	0.100076504
15	0xbdfc7272	-0.12326516
16	0x3e34befc	0.1765098
17	0xbdb1393e	-0.08653496
18	0xbbdb56cd	-0.006693697
19	0xbcf9c27d	-0.030488247
20	0x3d378e56	0.044813477
21	0xbe15ba94	-0.14621955
22	0x3da2f0cd	0.07956085
23	0xbdbef8a6	-0.0932477
24	0x3e2ffda7	0.17186604
25	0xbdd13911	-0.10215963
26	0x3e077a42	0.13230231
27	0x3dac6e9e	0.08419536
28	0xbd8c0bab	-0.06838163
29	0xbcc216fa	-0.023692597
30	0x3e039dd6	0.12853178
31	0x3d84e78b	0.06489476

weight f4 [128, 32, 3, 3]
0	0xbd9bf42c	-0.076149315
1	0xbd621cd9	-0.055203293
2	0x3c658ae6	0.014010167
3	0xbbb26be4	-0.0054449905
4	0xbd9c2e46	-0.076260135
5	0xbd9d2ba3	-0.07674339
6	0xbd80294c	-0.06257877
7	0xbdd8e24c	-0.10590038
8	0xbd17b3e3	-0.037036788
9	0xbd6f80f4	-0.05847259
10	0xbd175f48	-0.0369561
11	0xbc340e77	-0.010989777
12	0xbda3d94c	-0.080004305
13	0xbdf32fbd	-0.1187434
14	0xbd06ac04	-0.03287889
15	0xbcfd3cac	-0.03091272
16	0x3c48d746	0.012258356
17	0xbd4d3bce	-0.050105862
18	0x3d126913	0.035744738
19	0x3dd8a29d	0.10577891
20	0xbd58757c	-0.052846417
21	0x3c225fd0	0.009910539
22	0x3da80dfa	0.08205791
23	0x3d71987e	0.05898332
24	0xbd4e7d82	-0.050412662
25	0xbd208df4	-0.039197877
26	0x3d033096	0.032028757
27	0x3b9e9497	0.0048394906
28	0xbd03101e	-0.031997792
29	0x3d0f70cf	0.035019692
30	0xbd94eae1	-0.07271362
31	0xbd890d2c	-0.066919655
32	0x3cc1e258	0.0236675
33	0xbcd405f6	-0.025881749
34	0xbd978475	-0.07398311
35	0xbd3e5dcd	-0.046476174
36	0xbd8888ac	-0.06666693
37	0x3baaaf3c	0.005208878
38	0xbd43b3a9	-0.04777876
39	0xbd7c9545	-0.061665792
40	0x3cf953e2	0.030435506
41	0xbdb21cb9	-0.08696885
42	0xbcc8f537	-0.02453099
43	0x3c56cf35	0.013110925
44	0xbd1ba217	-0.037996378
45	0xbd4141cb	-0.047181886
46	0x3ca499c7	0.020092858
47	0xbd2e2d97	-0.042523947
48	0xbdf211c4	-0.11819795
49	0xbc688a35	-0.014193107
50	0x3c8dd523	0.017313546
51	0x3d6e0c4f	0.058117207
52	0xbc31bfec	-0.01084898
53	0xbd8a6ea5	-0.06759385
54	0xbcbd26a7	-0.02308972
55	0x3d92ecb3	0.07174053
56	0x3d6a3928	0.057183415
57	0xbcb59403	-0.022165304
58	0x3db29537	0.08719867
59	0x3affedac	0.0019525788
60	0x3a0e34b7	0.0005424725
61	0x3c103b6e	0.008803232
62	0xbcf5e918	-0.030018374
63	0x3c27f688	0.010251649
64	0x3d77787a	0.06041763
65	0x3d8f4a17	0.069965534
66	0xbd5d92e0	-0.05409515
67	0xbb2115c1	-0.0024579617
68	0xbb5a986d	-0.0033355013
69	0x3d1a3144	0.03764464
70	0x3db55615	0.088543095
71	0x3e00e942	0.12588981
72	0xbcd960b8	-0.026535377
73	0xbddb748f	-0.10715591
74	0x3c9f780e	0.019466426
75	0xbc9baf75	-0.019004563
76	0xbd819ca6	-0.063287064
77	0xbd9f47b9	-0.07777352
78	0xbc5376ca	-0.0129067395
79	0xbc879f9c	-0.0165556
80	0xbdcbec6b	-0.099572025
81	0xbca62764	-0.020282455
82	0xbb83b74a	-0.0040196525
83	0xb95ee67f	-0.00021257436
84	0x3d9963fc	0.07489774
85	0x3d822f12	0.06356634
86	0x3db45aa6	0.08806352
87	0x3d7bb4d3	0.061451744
88	0x3c980ed7	0.018561764
89	0xbcd462e3	-0.02592606
90	0xbd9ac0f1	-0.07556332
91	0xbd31f664	-0.043447867
92	0xbd874309	-0.06604583
93	0xbcf2dd98	-0.02964668
94	0xbd2e4d83	-0.04255439
95	0xbb57886a	-0.0032887706
96	0x3c5ec1db	0.013596023
97	0xbc4eb853	-0.0126171885
98	0xbd7ec1b2	-0.06219644
99	0x3c3e45d4	0.011613328
100	0xbd050347	-0.03247383
101	0x3b930533	0.004486704
102	0x3b2ca7c2	0.0026345109
103	0xbd90577e	-0.07047938
104	0xbd20c9d4	-0.03925498
105	0x3d9d1be1	0.07671333
106	0x3cd883ab	0.026429972
107	0xbba51fba	-0.0050391825
108	0xbd225b84	-0.039638057
109	0xbdcbc954	-0.0995051
110	0x3d21a7a2	0.039466508
111	0xbc7567ee	-0.014978392
112	0xbc4d3188	-0.012524016
113	0x3bbb592e	0.005717418
114	0xbd8d0312	-0.06885351
115	0x3dab8c90	0.083764195
116	0x3cfee313	0.031114137
117	0x3c9f439c	0.019441418
118	0xbd03a181	-0.032136444
119	0x3d020446	0.031742357
120	0xbd208cc7	-0.039196756
121	0xbd3b4c6d	-0.045727182
122	0xbcbb2b6c	-0.022847854
123	0x3ae8271c	0.0017711851
124	0x3e032c56	0.12809882
125	0x3db3012f	0.0874046
126	0xbdecc263	-0.11560514
127	0xbdcea9de	-0.10090993
128	0xbcd13a16	-0.025540393
129	0xbd1d529f	-0.03840887
130	0x3c62bf8a	0.013839612
131	0x3d301478	0.04298827
132	0x3c7aaef9	0.015300506
133	0xbd8640a0	-0.06555295
134	0x3cc60b1f	0.024175225
135	0xbc1240d0	-0.008926585
136	0xbd35a867	-0.044350054
137	0x3c0bac5e	0.008524982
138	0x3d76281a	0.060096838
139	0xbd9074a1	-0.07053495
140	0x3b5d674a	0.003378349
141	0xbd4a235e	-0.049350135
142	0xbdcade7f	-0.09905719
143	0xbcad901f	-0.021186886
144	0xbd65c394	-0.05609472
145	0xbd385cf8	-0.045010537
146	0x3d56973c	0.052390322
147	0xbd99d30e	-0.075109586
148	0xbd079bef	-0.033107694
149	0x3d56c0a0	0.052429795
150	0xbc244244	-0.010025565
151	0xbafa88cb	-0.0019114254
152	0x3c9de537	0.019274337
153	0xbd97574c	-0.073896974
154	0xbcf83ceb	-0.030302485
155	0xbd04d6b8	-0.032431334
156	0x3c7b4c55	0.015338023
157	0x3d9f223b	0.07770201
158	0x3c99a069	0.018753247
159	0xbc98536a	-0.018594462
160	0x3d86202c	0.06549105
161	0x3d5a1603	0.05324365
162	0xbdfe9dfa	-0.124324754
163	0x3a995ef3	0.0011701271
164	0x3d8357c7	0.064132266
165	0x3c312b2b	0.010813515
166	0xbc91d235	-0.01780043
167	0x3b108413	0.0022051379
168	0x3c558f51	0.013034658
169	0x3d348ead	0.04408138
170	0xbd364da4	-0.044507638
171	0x3cbbeaa2	0.02293903
172	0xbde6a4f9	-0.11261935
173	0xbc0e7209	-0.00869418
174	0xbd218e60	-0.03944242
175	0xbcaf2ef8	-0.021384701
176	0xbdb4fd1a	-0.08837338
177	0x3c262328	0.010140218
178	0xbd131c4a	-0.03591565
179	0xbbea1443	-0.0071435287
180	0xbd5b70ef	-0.0535745
181	0x3b5d2bfd	0.0033748143
182	0xbce37393	-0.027765071
183	0xbd8b6415	-0.068061985
184	0xbd0b6b35	-0.034037787
185	0x3c87abf1	0.01656148
186	0xbd461f2b	-0.048369568
187	0xbd4f477a	-0.050605275
188	0x3c95617b	0.018234959
189	0x3ba9534d	0.005167401
190	0xbdb1819e	-0.08667301
191	0xbdd745d5	-0.10511366
192	0x3d260e04	0.04054071
193	0xbd9ba4ce	-0.075997934
194	0xbd94208b	-0.072327696
195	0x3d0ad9aa	0.033898987
196	0xbd9229c2	-0.07136871
197	0xbb8458ca	-0.004038905
198	0x3d8fd776	0.07023518
199	0xbd33b169	-0.043870363
200	0x3d84e984	0.06489852
201	0xbccf77c8	-0.02532567
202	0xbda1f006	-0.07907109
203	0xbcf29e42	-0.029616479
204	0xbd058e23	-0.032606255
205	0x3d107f30	0.035277545
206	0x3d17898e	0.036996417
207	0x3c9b8cb1	0.018987985
208	0x3d00855c	0.03137718
209	0xbc8c861e	-0.017153796
210	0xbb1921fc	-0.0023366204
211	0x3cb1232c	0.021623217
212	0xbd321a73	-0.043482255
213	0xbe0de544	-0.13856989
214	0x3d2bd003	0.041946422
215	0xbc1bb1cd	-0.00950284
216	0x3b59bacd	0.0033222914
217	0x3d832d0b	0.06405076
218	0x3caf972f	0.021434395
219	0x3c9ff164	0.019524284
220	0x3d87c5fc	0.066295594
221	0x3ddf044b	0.10889491
222	0xbda4424a	-0.08020456
223	0xbd913baa	-0.07091458
224	0x3d456ea0	0.048201203
225	0xbc2221e8	-0.009895779
226	0xbdd614d1	-0.10453189
227	0x3ca291f8	0.019844994
228	0xbcfeac1f	-0.031087933
229	0xbb7ec919	-0.0038877188
230	0xbd83b197	-0.06430357
231	0xbd2b68d9	-0.041848037
232	0xbb9aaadb	-0.0047200746
233	0xbc08e616	-0.008355638
234	0x3d3b0b04	0.045664802
235	0xbd25fd42	-0.04052473
236	0xbcd2032a	-0.025636274
237	0x3b10bb4c	0.0022084294
238	0xbc276813	-0.010217684
239	0xbd4364cc	-0.04770355
240	0x3c854e2b	0.016272625
241	0x3dd3a05a	0.10333319
242	0xbca35d0a	-0.019941825
243	0x3d890bb3	0.066916846
244	0x3d0fa512	0.035069533
245	0xbc83cb71	-0.01608822
246	0xbda75f4f	-0.081724755
247	0xbd3ea381	-0.04654265
248	0xbcfd5911	-0.03092626
249	0x3cb1232c	0.021623217
250	0x3cdbf7f6	0.026851635
251	0xbc852ed5	-0.016257683
252	0x3d320e43	0.043470632
253	0x3bd75abc	0.0065720957
254	0x3d7fea24	0.062479153
255	0x3cf35e72	0.029708121

bias f4 [128]
0	0x3d2d0209	0.04223827
1	0x3d09e086	0.033661388
2	0x3d4bd838	0.04976675
3	0xbcd75291	-0.026284488
4	0x3d123deb	0.03570358
5	0xbcd2fece	-0.025756266
6	0xbd25564a	-0.040365495
7	0xbce56d68	-0.02800627
8	0xbbcc9bc3	-0.006244154
9	0x3b804be8	0.0039152987
10	0x3ba3a9de	0.004994615
11	0x3da4eb06	0.0805264
12	0x3d0a40eb	0.033753317
13	0xbbc7401d	-0.006080641
14	0x3d1e6398	0.0386692
15	0x3c6c9c30	0.014441535
16	0x3d94dda3	0.07268836
17	0x3d5093d5	0.050922234
18	0x3d4a705e	0.049423568
19	0x3cb585c2	0.022158507
20	0x3d09edf7	0.033674207
21	0xbc501347	-0.012699909
22	0xb9d0fd43	-0.00039861546
23	0x3d571c0b	0.05251698
24	0x3cb565da	0.022143293
25	0xbc83a28c	-0.01606872
26	0xbc1b116d	-0.009464604
27	0x3db75100	0.089509964
28	0x3cdf79f8	0.027279839
29	0xbc2d799e	-0.010588078
30	0x3db25171	0.0870694
31	0x3d2ab41d	0.041675676
32	0x3a27c4a4	0.0006399846
33	0x3d84f56f	0.06492125
34	0x3d063b62	0.032771476
35	0xbc7cdab2	-0.015433
36	0xbc5955cc	-0.0132650845
37	0x3d9557c7	0.07292133
38	0x3c50110c	0.012699377
39	0xbd58e80a	-0.052955665
40	0xbd71ff1a	-0.059081174
41	0x3d637b2c	0.055537388
42	0xbd1a5eef	-0.037688192
43	0x3b99e26b	0.0046961806
44	0xbba3af5d	-0.00499527
45	0xbb8f8b6e	-0.004380635
46	0x3c9b54e3	0.018961376
47	0x3ce6354a	0.028101582
48	0x3d6170d3	0.05503924
49	0x3cc5a25b	0.024125269
50	0x3db02f71	0.08602799
51	0x3d888d13	0.06667533
52	0xbcf6afe6	-0.030113172
53	0x3c83cff0	0.016090363
54	0x3cdab828	0.02669914
55	0x3d2d15e9	0.042257223
56	0x3dc80146	0.09765868
57	0xbd6b0d4f	-0.05738574
58	0xbd11a1c6	-0.03555467
59	0x3c8e8859	0.017399
60	0xbcc7bd7d	-0.024382347
61	0xbd05332c	-0.032519504
62	0xbd05516e	-0.03254836
63	0x3da11b10	0.0786649
64	0x3c985bc1	0.01859844
65	0x3dbb0aa1	0.09132887
66	0xbcd71293	-0.026253974
67	0x3d1fc6ad	0.03900783
68	0x3d2c8e8e	0.04212814
69	0x3d924816	0.071426556
70	0x3d4c2801	0.04984284
71	0x3c9b45bf	0.018954156
72	0x3d83a6e7	0.064283185
73	0xbd3cf5e0	-0.046132922
74	0x3d55e313	0.052218508
75	0xbd16701c	-0.03672801
76	0x3acb6457	0.0015517575
77	0x3dd8f320	0.105932474
78	0xbc104637	-0.008805803
79	0xbd5f0cdc	-0.054455623
80	0xba8c4715	-0.0010702336
81	0xbb272c8d	-0.0025508732
82	0x3d2848cc	0.04108505
83	0xbce05435	-0.027383903
84	0xbcd1de16	-0.025618594
85	0xbc979cf9	-0.018507468
86	0x3d5225c6	0.051305555
87	0x3cfe2e5a	0.031027962
88	0x3d2ed0cd	0.042679597
89	0xbd51faee	-0.051264696
90	0xba3c85e2	-0.0007191581
91	0x3b7d423d	0.0038644217
92	0xbd8ffd70	-0.07030761
93	0x3d5bdf56	0.053679787
94	0x3d968d84	0.07351211
95	0x3db069d5	0.08613936
96	0x3d847b13	0.06468787
97	0xbca161cb	-0.019699952
98	0xbc59d958	-0.013296448
99	0x3c843718	0.016139552
100	0x3d82d215	0.06387726
101	0x3d0e7b2c	0.034785435
102	0x3d95b84b	0.07310542
103	0x3ccf36f5	0.02529476
104	0x3c92147a	0.01783203
105	0x3d37fe9f	0.04492056
106	0xbca40128	-0.020020083
107	0x3d0313d5	0.032001335
108	0xbccaf649	-0.024775641
109	0x3aa45fa5	0.0012540711
110	0x3d7dca11	0.061960284
111	0x3dcb8d94	0.09939113
112	0x3cf9a5b4	0.030474521
113	0xbd6d7a79	-0.057978127
114	0x3c1adc08	0.009451874
115	0x3ba4daec	0.0050309803
116	0x3c7d28cb	0.01545162
117	0x3cf4e403	0.02989388
118	0x3ce13ff3	0.027496314
119	0x3d713506	0.058888458
120	0x3d7f63d0	0.062351048
121	0xbb8f27b5	-0.004368747
122	0x3d84262e	0.06452595
123	0x3b282253	0.0025655224
124	0x3cca500c	0.024696372
125	0x3d4baf09	0.049727473
126	0xbd5fc16a	-0.054627813
127	0xbccd54af	-0.025064794

weight f4 [32, 128, 3, 3]
0	0x3d48cc21	0.049022797
1	0x3cc0aeea	0.023520906
2	0xbd0dfbbe	-0.03466391
3	0x3ce3b3ae	0.027795639
4	0xbbcc07e4	-0.0062265266
5	0x3c7fbf6f	0.015609606
6	0x3cba3740	0.022731423
7	0x3d0cadf5	0.034345586
8	0xbcc91e4d	-0.024550581
9	0x3d05346f	0.032520708
10	0x3be8f1e6	0.0071089147
11	0xbb824add	-0.0039762096
12	0xbd801830	-0.062546134
13	0x3d7efdba	0.06225369
14	0x3d6a0921	0.057137612
15	0x3cce910d	0.02521565
16	0x3bb04818	0.005379688
17	0xbd1c6389	-0.03818086
18	0x3d5e4b41	0.054270986
19	0x3d87f6d9	0.06638879
20	0x3d5478ab	0.05187289
21	0x3d68fe2b	0.05688302
22	0xbb9e4c45	-0.0048308694
23	0x3ca53eb7	0.020171506
24	0xbc90b774	-0.017665602
25	0x3c22e560	0.009942383
26	0x3cde2c15	0.02712063
27	0x3da28a00	0.07936478
28	0x3d95678e	0.07295142
29	0x3d23a568	0.039952666
30	0x3aa90f90	0.0012898315
31	0x3c0771c4	0.00826687
32	0x3cd3dcc1	0.0258621
33	0xbbdaa118	-0.006672036
34	0x3c9e06f7	0.01929043
35	0x3d18fb95	0.037349302
36	0x3d6f8e3e	0.058485262
37	0x3cd20de3	0.025641387
38	0x3d721280	0.059099674
39	0x3d17043c	0.036869273
40	0x3d64b7a7	0.055839207
41	0xbc7c91d2	-0.015415626
42	0xbd0b0f18	-0.03394994
43	0xbc1e34bf	-0.00965613
44	0x3d75dcdc	0.06002508
45	0x3d5156ed	0.05110829
46	0xbd016c41	-0.03159738
47	0xbca97b40	-0.020688653
48	0xbaf23f10	-0.0018481929
49	0xba2a8115	-0.000650422
50	0xbcd83b28	-0.026395395
51	0x3b4f8d68	0.0031669978
52	0x3d7a38ff	0.061089512
53	0x3c86597e	0.016400095
54	0x3b3abf2c	0.0028495295
55	0xbd903a7f	-0.07042407
56	0xbd43332c	-0.047656223
57	0x3cca8cb7	0.024725301
58	0xbbf78e53	-0.007554808
59	0xbc617545	-0.013760869
60	0x3d8677cf	0.065658204
61	0x3cfda9c5	0.030964741
62	0x3d6285e1	0.055303458
63	0xbd14fc87	-0.03637364
64	0x3d50b29f	0.050951596
65	0xbcf5748e	-0.029962804
66	0xbd0eb17d	-0.034837235
67	0xbc69c8f2	-0.0142691005
68	0x3cfe7850	0.031063229
69	0xba63fcb7	-0.000869702
70	0xbc8039ee	-0.015652623
71	0x3d75468d	0.059881736
72	0x3c62ccc8	0.013842769
73	0xbce42357	-0.027848883
74	0xbc886576	-0.016649943
75	0x3c8bea3e	0.017079469
76	0xbd43da89	-0.047815833
77	0xbca017e5	-0.019542644
78	0x3d10544f	0.035236653
79	0x3c39a66a	0.01133118
80	0xbc646f58	-0.013942562
81	0xbb5b0582	-0.003342003
82	0x3d0eeeb8	0.03489563
83	0x3cba9be5	0.022779414
84	0xbcbdb884	-0.023159273
85	0x3d2dc1b5	0.04242106
86	0x3be2277b	0.006901679
87	0x3c0f372d	0.008741182
88	0xbc9028ea	-0.017597634
89	0x3d3de86a	0.046364225
90	0x3d81203c	0.06304976
91	0x3c739add	0.014868465
92	0x3d4b7a1f	0.04967701
93	0x3d4801e1	0.048829917
94	0x3db1427a	0.086552575
95	0x3d6a4f0d	0.057204295
96	0x3ba0b824	0.004904764
97	0x3c1ad181	0.009449364
98	0x3d2f38c1	0.042778734
99	0x3d9f1c00	0.077690125
100	0xbd826615	-0.06367127
101	0xbd56332f	-0.052294906
102	0x3da60460	0.08106303
103	0x3cb6b00b	0.02230074
104	0xbc24c291	-0.010056154
105	0x3d6f5df2	0.058439203
106	0x3c133772	0.008985387
107	0x3cd01b62	0.025403682
108	0x3dd91560	0.1059978
109	0x3b152929	0.002276013
110	0x3d0a2490	0.033726275
111	0xbb8ad0db	-0.0042363233
112	0xbac0e6b1	-0.0014717189
113	0xbc542443	-0.012948099
114	0xbcd6d213	-0.026223218
115	0x3b4ffa01	0.0031734707
116	0x3d3bb33c	0.045825228
117	0xbc9df205	-0.019280443
118	0xbd0b0288	-0.03393796
119	0x3c861d2a	0.016371328
120	0xbc26bb24	-0.010176454
121	0x3d1efbf0	0.038814485
122	0xbd450557	-0.048100796
123	0x3d283ee8	0.041075617
124	0xbd39fd3a	-0.04540751
125	0x3d02b632	0.031912036
126	0x3d31d09b	0.043411832
127	0x3b376e6d	0.0027989403
128	0xbd3ea934	-0.046548083
129	0x3d3fb6d3	0.046805214
130	0xbb5d74c6	-0.0033791526
131	0xbdd1c034	-0.10241738
132	0xbaea9f92	-0.0017900339
133	0x3bb29634	0.0054500345
134	0xbd091d8f	-0.033475455
135	0xbc80330f	-0.015649347
136	0xbd060081	-0.032715324
137	0xbcbee083	-0.023300415
138	0xbc7a6190	-0.01528205
139	0x3d1b48ca	0.037911214
140	0xbd8a4963	-0.06752279
141	0xbc7afa41	-0.015318454
142	0x3cf01bbd	0.029310102
143	0x3cfc4870	0.03079626
144	0xbb9fd114	-0.004877219
145	0xbdba71b6	-0.0910372
146	0xbd4bf511	-0.04979426
147	0x3c22a262	0.00992641
148	0xbd0c5b47	-0.034266736
149	0xbd4bf30c	-0.049792334
150	0xbba97cff	-0.0051723714
151	0x3bbab2dd	0.0056975917
152	0x3c82db1c	0.01597362
153	0xbcb6bc9a	-0.02230673
154	0xbd58f618	-0.05296907
155	0xbd645437	-0.055744376
156	0x3b0701fe	0.0020600553
157	0xbcc50f4c	-0.024055146
158	0x3bf0ce88	0.007348839
159	0x3b96d299	0.004602742
160	0xbc8ae618	-0.01695542
161	0xbcde3cb1	-0.02712855
162	0x3cf4f4b6	0.029901844
163	0xbcd29d90	-0.025709897
164	0x3d1aaed2	0.037764378
165	0x3cd2c2ba	0.025727618
166	0x3d7b2507	0.06131461
167	0xbc85c3e0	-0.016328752
168	0x3d954cd2	0.07290043
169	0xbbff32e8	-0.007788051
170	0x3cb8e6de	0.022571024
171	0xbbc0d957	-0.005885284
172	0xbd3e3843	-0.046440374
173	0x3d236b8a	0.03989748
174	0x3d0da2cf	0.034579094
175	0xbd6d5078	-0.05793807
176	0x3d629e3c	0.055326685
177	0xbbde5a36	-0.0067856563
178	0x3d56ea64	0.052469626
179	0xbb01cb39	-0.0019804968
180	0xbc57bc5f	-0.01316747
181	0x3d82b993	0.06383052
182	0x3d858a1d	0.06520484
183	0x3a90ed1c	0.0011056992
184	0xbd9d70d4	-0.07687536
185	0x3c835bd5	0.016035
186	0xbb13f5a8	-0.0022576842
187	0xbd3aa898	-0.04557094
188	0x3cc50b36	0.024053197
189	0xbc6d62b4	-0.014488865
190	0x3d953dac	0.072871536
191	0x3d3acae1	0.045603637
192	0xbcee8db6	-0.029120307
193	0xbb8d8c0a	-0.0043196725
194	0xbc78e439	-0.015191131
195	0xbb2e5520	-0.0026601031
196	0xbd0df1c4	-0.034654394
197	0x3da2c67c	0.07948014
198	0x3c1c9f0a	0.009559402
199	0xbdab0339	-0.08350224
200	0xbd3d8898	-0.046272844
201	0x3c9335c3	0.017969972
202	0xbc0ba696	-0.008523604
203	0xbcc5e4c1	-0.02415693
204	0xbcd1ef37	-0.025626762
205	0xbbc3c140	-0.005973965
206	0x3b3320ef	0.0027332862
207	0x3d2b2f79	0.04179332
208	0xbd09d77b	-0.033652764
209	0xbbb96ac6	-0.0056584803
210	0x3ccc5e53	0.024947321
211	0x3d4a48ab	0.049385708
212	0xbc44e1bb	-0.012016709
213	0x3cf37c26	0.029722285
214	0x3ccc4e6b	0.024939736
215	0x3aa9c223	0.0012951534
216	0xbcb317cb	-0.021861931
217	0x3d2dc34f	0.04242259
218	0xba366d8a	-0.00069590716
219	0xbc9821cb	-0.018570801
220	0xbc494e92	-0.012286799
221	0x3d3bccc8	0.04584959
222	0xbd2022bf	-0.039095636
223	0xbc7f2bbe	-0.015574394
224	0x3ce5fec3	0.028075581
225	0xbda703e5	-0.0815504
226	0xbd2cc73f	-0.042182203
227	0x3cb1331a	0.021630812
228	0x3b73f49d	0.0037224658
229	0xbd31a37f	-0.043368813
230	0xbc1bd80b	-0.009511958
231	0x3c1cfc95	0.009581705
232	0xbc80c15d	-0.015717203
233	0xbcc98624	-0.024600096
234	0x3db8a715	0.09016243
235	0xbc3e750c	-0.011624586
236	0xbc19be42	-0.00938374
237	0xbbec6ad9	-0.0072148857
238	0x3e021e41	0.12706853
239	0x3c94be65	0.018157193
240	0xbaf21a4e	-0.0018470974
241	0x3d5f1f88	0.05447343
242	0x3cebef4f	0.028800635
243	0xbb569600	-0.0032743216
244	0x3d762f03	0.060103428
245	0x3de636be	0.1124091
246	0x3c72c92c	0.014818471
247	0x3cf3607c	0.029709093
248	0x3d303dc7	0.043027665
249	0x3c15287c	0.0091038905
250	0xbc7c1c20	-0.015387565
251	0x3c8ed3b9	0.017434942
252	0x3cfb4ede	0.030677255
253	0xbdb52d58	-0.08846539
254	0xbcfd4730	-0.030917734
255	0x3ca709e0	0.020390451

bias f4 [32]
0	0x3cc002e1	0.023438873
1	0x3cb588c4	0.022159941
2	0x3d1b6d8b	0.037946265
3	0x3d55e449	0.052219663
4	0x3d715343	0.058917295
5	0x3c4b873c	0.012422379
6	0x3d152246	0.03640964
7	0x3cfcde66	0.030867767
8	0x38fa4b03	0.00011934901
9	0x3b855bda	0.0040697875
10	0x3cc1defc	0.023665898
11	0x3d19627a	0.03744743
12	0xbc9253a4	-0.017862149
13	0xba3ab967	-0.0007122964
14	0x3cb55ad9	0.022138046
15	0x3d0d9c5e	0.03457295
16	0x3d1cc1fa	0.038270928
17	0x3d00f51c	0.031483755
18	0x3cebc761	0.028781595
19	0xbd0b7428	-0.034046322
20	0x3d4558de	0.048180453
21	0xbd269fde	-0.040679805
22	0x3c8ca30e	0.017167594
23	0x3d01cba5	0.03168835
24	0x3c92bf88	0.017913595
25	0x3d42d6c0	0.047568083
26	0xbb1d8380	-0.002403468
27	0xbbd26fca	-0.0064220177
28	0x3c873d25	0.016508648
29	0x3c83e60e	0.01610091
30	0x3d29ade5	0.041425604
31	0xbad3d4be	-0.0016161425

weight f4 [3, 32, 3, 3]
0	0xbdc651f0	-0.09683597
1	0xbd57c7b7	-0.052680697
2	0x3cda56ad	0.026652658
3	0xbd301775	-0.04299112
4	0xbd7a0ef0	-0.0610494
5	0x3c49c190	0.012314215
6	0xbcaa5713	-0.020793473
7	0xbd088b59	-0.033336017
8	0xbd6372c5	-0.055529375
9	0x3dadda0b	0.08488854
10	0x3d385a76	0.045008145
11	0xbd7f50d2	-0.062332936
12	0x3cd1ad10	0.025595218
13	0xbe05ffb3	-0.13085823
14	0x3d160f49	0.03663567
15	0xbcbd65db	-0.023119858
16	0x3d5fb0e4	0.054612055
17	0xbd610453	-0.054935765
18	0xbe04fbe7	-0.12986718
19	0xbc8b8663	-0.017031854
20	0xbd85689f	-0.065140955
21	0xbd67d2eb	-0.05659763
22	0x3dc84e6b	0.09780582
23	0x3d8fd646	0.07023291
24	0xbd0bff85	-0.03417923
25	0x3d858584	0.06519607
26	0x3d83e383	0.06439879
27	0x3d36f5fe	0.04466819
28	0x3d4945af	0.04913872
29	0xbd82e2b5	-0.06390897
30	0xbc0299e4	-0.007971261
31	0x3dcdb53a	0.10044332
32	0xbbbf75b3	-0.0058428883
33	0x3d46e643	0.04855944
34	0x3cfeba60	0.03109473
35	0xbccb3285	-0.024804363
36	0xbd95c2ef	-0.07312571
37	0xbdad0e1e	-0.08449958
38	0x3cf4736b	0.029840192
39	0x3d832659	0.064037986
40	0x3c61c827	0.01378063
41	0xbd3a68d2	-0.04551012
42	0xbd97ed1c	-0.07418272
43	0x3c9607df	0.0183143
44	0xbdc165b8	-0.094432294
45	0x3d562e04	0.052289978
46	0x3d81c12d	0.063356735
47	0x3d10aa41	0.035318617
48	0x3b0f744a	0.0021889382
49	0x3d974127	0.07385474
50	0x3d8ef405	0.06980137
51	0x3d83b3d0	0.06430781
52	0x3cb97720	0.022639811
53	0x3ccacf6e	0.024757113
54	0xbc8fe71b	-0.017566254
55	0x3d2f55d1	0.04280645
56	0xbc3cac09	-0.011515626
57	0x3d47edeb	0.04881088
58	0x3dfad613	0.12247863
59	0xbd3f4b4f	-0.04670268
60	0x3c4cdc18	0.012503646
61	0x3bf31ff7	0.007419582
62	0x3ce84c88	0.028356805
63	0xbcde7bbc	-0.02715861
64	0xbdae19b3	-0.085009955
65	0xbba668f6	-0.0050784303
66	0x3bead3a2	0.007166342
67	0xbcfb67e8	-0.030689195
68	0xbd187b11	-0.03722674
69	0xbb059a31	-0.0020386095
70	0x3d733fe8	0.059387118
71	0xbccb4632	-0.024813745
72	0xbe162a72	-0.14664629
73	0xbdd79ced	-0.10527978
74	0xbda8e9e1	-0.08247734
75	0xbdc04564	-0.09388235
76	0x3cbf0c21	0.023321213
77	0xbd6ac023	-0.057312142
78	0xbbfffad7	-0.007811885
79	0x3cb86303	0.02250815
80	0x3ce03080	0.027366877
81	0x3d1914a1	0.03737319
82	0x3c900c0a	0.017583866
83	0x3d0c93c1	0.034320597
84	0x3c187634	0.009305526
85	0x3cd798b0	0.026317924
86	0xbc5065bb	-0.012719567
87	0xbdd3bec2	-0.103391185
88	0xbd7e1ce9	-0.06203929
89	0xbc2b52ee	-0.010456784
90	0xbdb3d0a9	-0.08780033
91	0xbddb755f	-0.10715746
92	0xbda60b2e	-0.08107601
93	0xbd8aae76	-0.06771557
94	0xbd8f612b	-0.07000955
95	0xbc548bc8	-0.01297278
96	0x3d506059	0.050873134
97	0x3d8562ae	0.06512962
98	0xbd39324d	-0.045213986
99	0x3d2355b8	0.03987667
100	0xbdbbf6e9	-0.09177954
101	0x3aea370f	0.0017869192
102	0xba5ba522	-0.0008378794
103	0xbdb37e2b	-0.08764299
104	0x3d76d9de	0.060266368
105	0xbd9f9e1e	-0.0779383
106	0xb9ee1efa	-0.00045417977
107	0x3b150ff5	0.0022745107
108	0xbcc2ce43	-0.023779994
109	0xbd2444a1	-0.040104512
110	0x3c351fbf	0.011054932
111	0x3d7b6248	0.061373025
112	0x3a6d78d9	0.000905884
113	0x3d33074e	0.04370814
114	0xbc0b5c59	-0.008505904
115	0xbbfa4bc8	-0.0076384284
116	0x3d1f0944	0.038827196
117	0xbd07742c	-0.033069775
118	0x3be91d5f	0.007114097
119	0x3d78f88f	0.06078392
120	0x3c9b64e5	0.018969009
121	0x3d099d63	0.03359736
122	0xbca0da96	-0.01963548
123	0xbd6628b5	-0.056191165
124	0x3d610908	0.054940253
125	0x3d0b0abc	0.033945784
126	0x3cc1120f	0.023568181
127	0xbcef3192	-0.029198442
128	0xbd34ac78	-0.04410979
129	0x3d5da56d	0.05411284
130	0x3da49ca9	0.08037693
131	0xbce06afc	-0.027394764
132	0x3d92f6f7	0.07176011
133	0x3d9cebec	0.07662186
134	0xbd1b7f33	-0.037963104
135	0x3d6f34d6	0.058399998
136	0x3d9fc688	0.07801539
137	0xbd6171a1	-0.055040006
138	0x3d3848e2	0.04499138
139	0x3cc7d6a1	0.024394335
140	0xbcb4db43	-0.022077208
141	0x3c997007	0.018730177
142	0x3db92c2f	0.090416305
143	0x3d4c1d80	0.04983282
144	0x3e148682	0.14504436
145	0x3cd42fb3	0.025901651
146	0xbd4c02a3	-0.049807202
147	0x3bfc6bb3	0.0077032684
148	0x3de63bb9	0.1124186
149	0xbe090ab4	-0.13382989
150	0xbcb8c3bd	-0.022554273
151	0x3d5a7a90	0.05333954
152	0xbdeedd4f	-0.11663305
153	0x3c008905	0.007845168
154	0x3d8fa31b	0.07013532
155	0x3cdceb7c	0.026967756
156	0x3cb7d6e9	0.022441344
157	0x3d81d697	0.06339758
158	0xbce3b751	-0.027797373
159	0x3ca59edb	0.02021735
160	0x3d345aa4	0.044031754
161	0xbd100287	-0.03515866
162	0xbbb195e2	-0.0054194788
163	0xbd8fce4f	-0.07021772
164	0xbb88a58c	-0.0041701254
165	0xbd9e2d40	-0.077234745
166	0x3d9a1682	0.07523824
167	0xbd0037c6	-0.03130319
168	0xbd3d8833	-0.046272468
169	0x3d475295	0.04866274
170	0x3d14106e	0.03614848
171	0xbd05d7a8	-0.03267637
172	0x3cde036d	0.027101243
173	0xbd8bd7a4	-0.068282396
174	0x3db3aafd	0.08772848
175	0x3c85382b	0.016262135
176	0xbd554c97	-0.052074995
177	0xbdafb290	-0.0857898
178	0xbd19ba88	-0.037531406
179	0xbda8300f	-0.082122914
180	0x3cd2484f	0.025669245
181	0xbd4aae38	-0.049482554
182	0xbd72196c	-0.059106275
183	0xba5ccd3a	-0.0008422915
184	0x3db54873	0.08851709
185	0xbcbce745	-0.023059497
186	0x3d61f997	0.055169668
187	0x3d921313	0.07132544
188	0x3d3b3ae2	0.045710452
189	0x3cf393c0	0.029733539
190	0x3d63e3f6	0.055637322
191	0xba7a6891	-0.0009552325
192	0xbc953ae5	-0.01821656
193	0x3bdbb98b	0.006705468
194	0x3d506bee	0.05088418
195	0xbce30b04	-0.027715214
196	0xbd7596cb	-0.05995826
197	0xbd47dd05	-0.048794765
198	0xbd3ddf6b	-0.046355646
199	0xbdabc291	-0.0838672
200	0x3d0333d3	0.032031845
201	0xbd1aa01a	-0.03775034
202	0xbd7603bc	-0.060062155
203	0x3c03c509	0.008042582
204	0xbcc9a7d0	-0.024616152
205	0x3d538522	0.051640637
206	0x3d501fb4	0.050811484
207	0x3dacced3	0.08437886
208	0x3d0454ef	0.03230756
209	0x3c42adb5	0.011882235
210	0x3c12af75	0.008952965
211	0x3d9c4df9	0.076320596
212	0x3d049c64	0.03237571
213	0xbde13d6b	-0.10998043
214	0xbca35f31	-0.019942852
215	0xbd77b7c8	-0.060478
216	0x3d97be81	0.074093826
217	0xbd36f814	-0.04467018
218	0xbe03b002	-0.1286011
219	0x3db271b8	0.087130964
220	0x3d9c520f	0.07632839
221	0xbdf50ae8	-0.11964971
222	0x3c56a0af	0.013099833
223	0x3c10a45e	0.008828251
224	0x3ced2471	0.02894804
225	0x3b8254ca	0.003977393
226	0x3c6e337b	0.014538641
227	0xbdde2564	-0.108469754
228	0x3d29d30f	0.041461047
229	0x3d671a29	0.056421433
230	0x3d3735a4	0.04472889
231	0xbdb934a7	-0.09043246
232	0xbc97d38e	-0.018533494
233	0xbcf16129	-0.029465275
234	0x3d0f12e1	0.034930114
235	0xbcb0fb02	-0.021604065
236	0x3ce4c2bf	0.027924893
237	0x3d112d76	0.035443746
238	0xbd506f30	-0.050887287
239	0xbcd7898c	-0.026310705
240	0xbd63f8ef	-0.055657323
241	0x3d337855	0.04381593
242	0xbce4f3ed	-0.027948344
243	0x3d47affa	0.04875181
244	0x3d8ebc4a	0.06969507
245	0x3db4872b	0.08814844
246	0xbd6e5030	-0.05818194
247	0xbc8a56e3	-0.016887134
248	0xbd8a1376	-0.06741993
249	0x3ce3fa6f	0.027829377
250	0xbce93373	-0.028466916
251	0xbd3d7ba8	-0.046260506
252	0xbd281893	-0.04103906
253	0xbd6530ed	-0.055954862
254	0xbd81b5eb	-0.06333526
255	0xbb9a817c	-0.004715143

bias f4 [3]
0	0x3d8f6862	0.07002331
1	0x3d1a76a9	0.03771082
2	0xbdc0efba	-0.09420724
