net_model.pt (torch, 307049 bytes, 7 tensors)

weight f4 [32, 3, 3, 3]
-0.0052181208 -0.12590757 0.105207786 0.029960005 0.19611084 -0.10472081 0.06460437 -0.03136977
0.061792046 0.119531006 0.11201415 -0.08738111 -0.078410394 0.118618876 -0.07680085 -0.07496903
-0.07025686 -0.03686741 -0.1829382 0.067987815 -0.081200294 0.065302335 0.15053377 0.17609964
0.037721325 -0.14572614 -0.096439235 0.11819467 -0.14193417 -0.016968971 0.2054463 -0.1685594
0.12700926 0.1480315 -0.02581908 -0.018115172 -0.099381454 -0.124097355 0.12139107 0.014160005
0.010922582 0.08278971 -0.1288515 0.14211412 0.007455791 -0.06087892 0.06591302 -0.057406332
-0.16425997 0.0037605204 -0.062263105 0.07036876 0.17613065 0.18571028 -0.16012736 0.017502619
-0.016025687 -0.15224859 -0.094041765 -0.21504894 0.15099871 -0.14852777 -0.012320746 0.11140918
0.11374748 -0.14664447 -0.11460562 0.115270376 -0.026657699 -0.144754 0.18065444 -0.05061522
-0.072183244 0.19540526 -0.23238236 0.080146484 0.05739555 0.13039912 -0.13708386 -0.022673976
-0.12593535 -0.08141525 0.0071251774 0.20671132 -0.21544614 -0.11841308 0.05260352 -0.21066749
0.03158663 0.09220087 -0.057274725 0.18956724 0.13464834 0.17842616 0.07499696 -0.030803585
0.07879269 0.054161113 -0.21758029 -0.15027411 0.05774014 0.054465894 0.0034068224 0.021486038
-0.10166668 0.13787784 -0.03521642 -0.10617128 0.047762588 0.21665491 0.23085338 -0.114756875
0.069030344 0.14193577 0.07972796 -0.00057925703 -0.06637838 0.21468197 -0.062334124 -0.22411649
0.02640244 -0.13636813 0.079699636 -0.177355 -0.2104592 0.10949049 0.05140831 0.12035949
-0.031634755 0.13636363 -0.2616089 -0.08851335 -0.17665218 0.023830634 0.06029401 0.07707609
-0.06287879 0.14577875 -0.2045234 -0.1664137 0.20538539 -0.17427783 0.13950846 -0.107470535
0.21414332 0.2056245 0.162648 0.15457857 -0.10880595 0.09981879 -0.03904797 0.16357219
-0.031459082 0.153968 0.10690078 0.13077667 0.09944943 0.010044355 0.05243471 -0.0019987633
-0.0032845878 -0.1457596 0.019511199 -0.14335406 -0.14952022 0.06583426 -0.05999253 -0.13681589
0.14265384 0.08733606 0.03789812 -0.14811082 0.17867091 0.16270858 0.120802104 0.235755
0.05494715 -0.100750916 0.22295006 -0.046417646 -0.08944364 -0.191584 0.22435564 0.07075788
-0.21135023 0.18268716 0.09293921 -0.05857179 -0.0016079679 0.15823826 -0.113935746 0.13291942
-0.17416239 0.07759706 0.11378695 0.03881462 -0.20510775 -0.1841688 0.03284431 -0.06643495
0.16650024 0.11784647 0.15115084 0.08741647 -0.05057999 0.062628046 0.090287685 -0.22832757
0.14840947 -0.11683683 0.104499236 0.11618314 0.12651198 -0.005415265 0.2051289 0.121149175
-0.18085778 -0.06717664 -0.0411601 -0.23652178 -0.229289 -0.13875782 0.09754503 -0.032436963
-0.061226353 -0.10302752 0.00142836 -0.17977193 0.19301407 -0.0713827 -0.09709439 -0.1568422
0.026298942 -0.06991009 0.020708418 -0.11252743 -0.18122593 0.27896395 0.0001732948 0.014491046
-0.18099546 -0.027338102 0.014395491 0.16644597 0.1882474 -0.06811078 -0.076164186 0.15869011
-0.09765237 -0.0933927 -0.22405642 0.039387967 -0.17452878 -0.072201416 -0.16485809 0.15286903
00000000: c5fc aabb eaed 00be 2e77 d73d af6e f53c
00000010: 48d1 483e dd77 d6bd 4c4f 843d 977d 00bd
00000020: a819 7d3d accc f43d ad67 e53d def4 b2bd
00000030: a195 a0bd 74ee f23d c449 9dbd 5d89 99bd
00000040: d4e2 8fbd 4802 17bd 2754 3bbe 323d 8b3d
00000050: 574c a6bd 3bbd 853d 8625 1a3e 7753 343e
00000060: ad81 1a3d 3c39 15be ef81 c5bd 0c10 f23d
00000070: 3157 11be 8302 8bbc 8460 523e d69a 2cbe
00000080: b70e 023e 9295 173e 8982 d3bc 4566 94bc
00000090: 8188 cbbd c126 febd e29b f83d 5eff 673c
000000a0: a1f4 323c a78d a93d a6f1 03be 5d86 113e
000000b0: b54f f43b 2d5c 79bd 68fd 863d e722 6bbd
000000c0: c433 28be 1073 763b 9907 7fbd 7f1d 903d
000000d0: 985b 343e d62a 3e3e 6df8 23be a761 8f3c
000000e0: 4d48 83bc 0ee7 1bbe f898 c0bd ca35 5cbe
000000f0: 689f 1a3e aa17 18be f4dc 49bc 7f2a e43d
00000100: 70f4 e83d f829 16be 5ab6 eabd e012 ec3d
00000110: 3f61 dabc 643a 14be 7afd 383e e851 4fbd
00000120: cfd4 93bd 5118 483e a4f5 6dbe d723 a43d
00000130: 9917 6b3d 5987 053e b65f 0cbe c6be b9bc
00000140: 32f5 00be 0abd a6bd 527a e93b 22ac 533e
00000150: ea9d 5cbe 8f82 f2bd ca76 573d 38b9 57be
00000160: fb60 013d cfd3 bc3d e798 6abd ea1d 423e
00000170: 41e1 093e 59b5 363e 0298 993d cd57 fcbc
00000180: 105e a13d 0bd8 5d3d 5ecd 5ebe 75e1 19be
00000190: ed80 6c3d a117 5f3d ff44 5f3b 7d03 b03c
000001a0: 9f36 d0bd d92f 0d3e 183f 10bd 5470 d9bd
000001b0: b4a2 433d c9da 5d3e d464 6c3e a705 ebbd
000001c0: c85f 8d3d 9c57 113e 6a48 a33d 48d9 17ba
000001d0: 63f1 87bd 97d5 5b3e 1152 7fbd cb7e 65be
000001e0: ee49 d83c 16a4 0bbe 9039 a33d 8d9c 35be
000001f0: 9e82 57be 8d3c e03d 8591 523d 097f f63d
00000200: 7293 01bd e8a2 0b3e 9af1 85be 7d46 b5bd
00000210: 4fe4 34be 7638 c33c daf6 763d 12da 9d3d
00000220: 98c6 80bd 0647 153e 956e 51be 5a68 2abe
00000230: 8c50 523e e375 32be 4edb 0e3e 8319 dcbd
00000240: 6348 5b3e 3b8f 523e 338d 263e d849 1e3e
00000250: a7d5 debd cb6d cc3d c4f0 1fbd 787f 273e
00000260: 3ddb 00bd caa9 1d3e ccee da3d 52ea 053e
00000270: 25ac cb3d 1491 243c c7c5 563d affd 02bb
00000280: 3d42 57bb 0142 15be f3d5 9f3c 68cb 12be
00000290: d41b 19be 1dd4 863d baba 75bd 7719 0cbe
000002a0: d913 123e 40dd b23d 0f3b 1b3d 5daa 17be
000002b0: 82f5 363e 149d 263e 1867 f73d c269 713e
000002c0: 4310 613d 7f56 cebd 054d 643e 6e20 3ebd
000002d0: 3a2e b7bd 992e 44be 7cbd 653e 82e9 903d
000002e0: 326c 58be 5812 3b3e ea56 be3d f9e8 6fbd
000002f0: 73c2 d2ba 3609 223e 2557 e9bd 071c 083e
00000300: a057 32be 35eb 9e3d 2209 e93d 14fc 1e3d
00000310: c407 52be bf96 3cbe c187 063d 0c0f 88bd
00000320: 0a7f 2a3e 7d59 f13d 49c7 1a3e 6807 b33d
00000330: f72c 4fbd 2243 803d c0e8 b83d b4ce 69be
00000340: a7f8 173e 2648 efbd b203 d63d 6df1 ed3d
00000350: 5b8c 013e 8972 b1bb 4f0d 523e 0f1d f83d
00000360: c832 39be e893 89bd 7e97 28bd c432 72be
00000370: bcca 6abe 8816 0ebe b0c5 c73d 9fdc 04bd
00000380: 7cc8 7abd 1800 d3bd cf37 bb3a 2216 38be
00000390: 7ba5 453e 1831 92bd 6cd9 c6bd 3e9b 20be
000003a0: e170 d73c 052d 8fbd b3a4 a93c c874 e6bd
000003b0: 4a93 39be 5dd4 8e3e 78b6 3539 da6b 6d3c
000003c0: e056 39be 28f4 dfbc 11db 6b3c d070 2a3e
000003d0: edc3 403e aa7d 8bbd f8fb 9bbd a97f 223e
000003e0: f7fd c7bd ac44 bfbd 0c6f 65be 4755 213d
000003f0: acb7 32be 56de 93bd 8fd0 28be b389 1c3e

bias f4 [32]
0.2095582 0.16521966 -0.10202015 0.14484723 0.109988056 -0.044473227 -0.027621396 -0.09148349
0.10769924 -0.005225892 -0.17293864 -0.060373437 -0.059313245 -0.036411438 0.22189075 -0.09635597
0.16132489 0.19649522 -0.024083825 0.0660482 0.1212828 -0.046655748 0.14568013 -0.13733783
-0.09778657 0.19627525 -0.021726489 0.0045841252 -0.08319017 0.15086831 0.063917875 0.020735178
00000000: 6d96 563e 582f 293e f1ef d0bd d552 143e
00000010: 6b41 e13d 8f29 36bd 4446 e2bc b25b bbbd
00000020: 6b91 dc3d f63d abbb d416 31be 234a 77bd
00000030: 72f2 72bd 2924 15bd 5437 633e 4756 c5bd
00000040: 5a32 253e 0b36 493e 714b c5bc 4744 873d
00000050: 1e63 f83d 191a 3fbd 2c2d 153e 4aa2 0cbe
00000060: 5344 c8bd 61fc 483e c0fb b1bc 6e36 963b
00000070: 9c5f aabd 397d 1a3e 60e7 823d d2dc a93c

weight f4 [128, 32, 3, 3]
-0.007908316 0.012192944 0.020461798 0.066309415 0.037060745 -0.032521024 0.023694504 -0.011180524
0.03249213 0.048020292 0.073860385 0.0729555 0.030445952 0.0064976662 0.02641933 0.021487927
-0.06903932 -0.020261234 -0.02162042 -0.029009322 0.006213846 0.036939684 -0.0347896 -0.03972508
-0.09117948 -0.047574956 0.029240917 -0.066557854 -0.09582503 0.0012239699 -0.019631008 0.06977363
0.018655231 0.016792176 -0.0120775355 0.014477587 -0.030125108 0.072452836 -0.046732705 0.10206572
-0.08574908 0.029846126 -0.053211097 0.023582017 -0.014996222 0.027718278 0.018722303 -0.06662945
-0.006615625 -0.013639253 -0.015934106 0.021508567 -0.0111768115 0.0074572465 0.055100452 0.033941876
-0.03487893 -0.011563655 0.00734066 -0.0033561417 -0.04041195 0.027099188 -0.038586732 -0.080503374
-0.00462832 -0.023945058 0.043621518 0.043313242 0.0018459719 -0.0452258 -0.076179534 0.036407575
-0.09703041 -0.048434485 -0.051595364 -0.05561957 -0.046347164 0.030437127 -0.115221046 0.0037889592
-0.07859226 0.02976907 0.062092174 -0.009399294 0.057522878 -0.016323363 -0.007299253 -0.008402473
0.047952123 -0.039314903 -0.0056899157 0.046058558 -0.00047178377 -0.009262456 -0.052728582 -0.026448289
0.063196555 -0.0535271 0.039404098 0.083092876 0.037027903 -0.01822225 0.011547585 0.08909762
-0.028191956 -0.0013550395 0.046603084 0.014062902 0.03913348 0.024794232 -0.08051919 -0.020902878
0.060648132 0.02470511 0.010696767 -0.02898872 -0.014602684 0.053208992 -0.022481479 0.008918711
-0.028268714 0.035498247 0.058061246 0.004231367 -0.032387424 0.06257855 -0.034208633 -0.12068453
-0.022423532 0.023264885 0.0013726134 -0.026898019 0.027168034 -0.043398414 -0.050060395 0.028193044
-0.0080403285 0.034755636 -0.018759673 0.043669842 -0.035770655 -0.07877879 0.01597786 -0.056531742
-0.014405249 0.07127546 -0.031203777 -0.0023910685 0.06342273 -0.1243712 0.00327131 0.034752157
-0.049972013 0.07119503 0.06489879 -0.012844897 0.016973423 0.05009553 -0.07963141 -0.045844164
0.01580162 0.027358565 0.021873094 0.03857486 0.05082899 -0.0049951095 -0.07561083 -0.043213725
-0.048127968 -0.037906785 -0.042679653 0.06568173 -0.008603555 0.030419623 0.065163724 -0.0714273
0.011267737 -0.02827378 0.0022267671 0.010732951 -0.022264846 -0.13686405 -0.047976572 0.010518228
0.01861743 0.023098234 -0.033596117 -0.021687536 0.020548228 0.059711523 -0.026334845 -0.009684227
-0.009550235 0.086758815 -0.021083012 -0.007221036 0.049217932 -0.022232674 -0.056571357 0.023506276
0.004535964 0.086284004 0.014530656 0.011319677 -0.051477708 0.04017459 -0.0053595714 -0.005059199
0.0029009043 0.0010526536 -0.030792054 0.0024966372 -0.03615706 -0.04481698 0.015538832 -0.07680602
-0.053273533 -0.024267076 0.008990527 0.099410266 0.03394876 0.008176941 -0.0010574106 0.06458289
0.04927921 -0.04701669 -0.035775483 0.062180568 0.010388615 0.027640622 0.059348922 0.024445659
-0.081930846 -0.005363768 -0.057067364 -0.039143372 0.047963213 0.04005744 -0.022902047 -0.05104517
0.024011225 0.030984947 -0.028494058 -0.048147738 0.027141722 -0.058174737 0.06359959 -0.003432389
-0.007277636 -0.08108509 -0.027033873 -0.079384536 0.04940449 0.057328556 -0.05896974 0.021087712
00000000: e291 01bc eac4 473c 809f a73c 3bcd 873d
00000010: 02cd 173d c434 05bd fa1a c23c 842e 37bc
00000020: 7816 053d edb0 443d 1d44 973d b169 953d
00000030: ca69 f93c 60ea d43b 5a6d d83c 7307 b03c
00000040: 7d64 8dbd e3fa a5bc 4f1d b1bc f5a4 edbc
00000050: 859d cb3b 114e 173d 8a7f 0ebd c4b6 22bd
00000060: 4fbc babd f5dd 42bd a68a ef3c 7c4f 88bd
00000070: ea3f c4bd 9d6d a03a 35d1 a0bc 7ae5 8e3d
00000080: dbd2 983c bf8f 893c dbe0 45bc 6733 6d3c
00000090: eec8 f6bc 2762 943d cb6a 3fbd d507 d13d
000000a0: 379d afbd dd7f f43c e1f3 59bd 132f c13c
000000b0: b7b2 75bc 7111 e33c 845f 993c 0575 88bd
000000c0: e3c7 d8bb 2c77 5fbc 3e88 82bc bc32 b03c
000000d0: f21e 37bc eb5b f43b 03b1 613d a306 0b3d
000000e0: 35dd 0ebd 7c75 3dbc eb89 f03b b7f2 5bbb
000000f0: 0087 25bd 1eff dd3c 1f0d 1ebd f4de a4bd
00000100: 2aa9 97bb 6d28 c4bc 7aac 323d 3a69 313d
00000110: 8af4 f13a b03e 39bd 0404 9cbd 1c20 153d
00000120: e1b7 c6bd 3d63 46bd a955 53bd 59d1 63bd
00000130: 86d6 3dbd 4857 f93c 03f9 ebbd 3050 783b
00000140: fbf4 a0bd 44de f33c 5d54 7e3d 7fff 19bc
00000150: 1c9d 6b3d 93b8 85bc 922e efbb 87aa 09bc
00000160: 7269 443d aa08 21bd 7972 babb e6a7 3c3d
00000170: bf59 f7b9 8ec1 17bc edf9 57bd 15aa d8bc
00000180: 326d 813d 3b3f 5bbd 3166 213d 992c aa3d
00000190: 92aa 173d d446 95bc 1532 3d3c d078 b63d
000001a0: d1f2 e6bc 959b b1ba e0e2 3e3d 1668 663c
000001b0: 6e4a 203d 461d cb3c 3fe7 a4bd 833c abbc
000001c0: 2d6a 783d 5f62 ca3c 7e41 2f3c c179 edbc
000001d0: 1940 6fbc acf1 593d 142b b8bc c91f 123c
000001e0: ca93 e7bc 9c66 113d a1d1 6d3d 47a7 8a3b
000001f0: ada8 04bd 2f29 803d 5a1e 0cbd 7329 f7bd
00000200: 8eb1 b7bc 0096 be3c 43e9 b33a 3c59 dcbc
00000210: 7f8f de3c 89c2 31bd 210c 4dbd 19f5 e63c
00000220: 95bb 03bc ed5b 0e3d e3ad 99bc 26df 323d
00000230: 4084 12bd c656 a1bd 00e4 823c d48d 67bd
00000240: fe03 6cbc def8 913d 109f ffbc 79b3 1cbb
00000250: c7e3 813d 54b6 febd 7963 563b 4758 0e3d
00000260: 74af 4cbd b3ce 913d a8e9 843d 6773 52bc
00000270: d90b 8b3c f830 4d3d cb15 a3bd 17c7 3bbd
00000280: 6672 813c 121f e03c 342f b33c ac00 1e3d
00000290: 0f32 503d 04ae a3bb dad9 9abd e000 31bd
000002a0: d521 45bd 2544 1bbd dcd0 2ebd 2584 863d
000002b0: edf5 0cbc 9332 f93c 8f74 853d 7a48 92bd
000002c0: 509c 383c 6a9e e7bc f4ee 113b 42d9 2f3c
000002d0: c464 b6bc 1726 0cbe 1583 44bd a554 2c3c
000002e0: 9583 983c 8238 bd3c 159c 09bd 0faa b1bc
000002f0: c254 a83c 1294 743d 2cbc d7bc 98aa 1ebc
00000300: 9778 1cbc 9bae b13d 48b6 acbc 719e ecbb
00000310: be98 493d 4c21 b6bc 5eb7 67bd 3c90 c03c
00000320: 6da2 943b abb5 b03d fd11 6e3c 2b76 393c
00000330: 4ada 52bd 1c8e 243d 589f afbb a3c7 a5bb
00000340: 191d 3e3b 32f9 893a 9e3f fcbc 9f9e 233b
00000350: 6d19 14bd 0292 37bd 9696 7e3c 7a4c 9dbd
00000360: 5935 5abd bfcb c6bc 014d 133c 9c97 cb3d
00000370: db0d 0b3d 94f8 053c d098 8aba 0944 843d
00000380: ffd8 493d 9394 40bd 5089 12bd 0db1 7e3d
00000390: 0235 2a3c 966e e23c db17 733d 4342 c83c
000003a0: 5ccb a7bd 8cc2 afbb 78bf 69bd cd54 20bd
000003b0: 1375 443d 4513 243d 139d bbbc bd14 51bd
000003c0: 30b3 c43c 25d4 fd3c 5f6c e9bc 9036 45bd
000003d0: 5158 de3c a248 6ebd 8040 823d eff1 60bb
000003e0: 3c79 eebb f10f a6bd 2476 ddbc 5c94 a2bd
000003f0: 5d5c 4a3d 59d1 6a3d 418a 71bd 23c0 ac3c

bias f4 [128]
0.010950673 -0.0147095 0.09298495 -0.014278347 -0.023620207 -0.010682627 0.077186786 -0.0233582
0.06997537 -0.0017332453 -0.031933095 -0.012625783 0.03862497 -0.02171777 0.0013109379 0.07884295
0.043021042 -0.029038876 0.003679412 0.021672662 -0.009578721 0.088525645 0.038438614 0.0140013015
0.02855976 0.051683936 0.03212303 0.020059038 0.08416717 0.010609489 0.06900293 0.09254404
-0.012771552 0.06456225 -0.019152613 0.011470519 0.04603915 0.09335536 0.036015347 0.061297376
0.04404958 0.08228368 -0.00074047456 0.030203149 0.055497643 0.025930012 0.03546949 0.034454867
0.014979242 0.049079925 -0.018322129 0.06901222 -0.04620968 0.042313132 0.03864785 0.045683224
0.055403724 0.006829306 0.0015465465 0.057978697 0.011598958 0.10354813 0.07786474 0.007105537
0.049982697 0.05605761 -0.0123353535 -0.039689068 -0.018593166 0.04404922 0.03978109 0.006310606
0.071023494 0.018225875 0.007873067 -0.0530374 0.09343781 0.060579892 0.011277663 0.079542264
-0.034330506 0.06690105 0.10604273 0.06596182 0.04404996 0.023900142 0.07162245 0.10604084
0.06894385 0.10561271 -0.015589047 0.08266867 0.07052559 0.017335366 0.032639585 0.02656551
0.017700534 0.021649553 0.06010485 0.042254794 0.06380884 0.072377704 0.044581134 0.07025167
0.05027807 0.059819225 0.09699393 0.10815836 0.0012717765 0.063852124 0.024587143 -0.015061229
0.08862194 0.011212797 -0.01756502 -0.006494249 0.08811059 0.011294188 0.015462934 0.08562121
0.068283826 0.03993276 -0.013490675 0.025768906 -1.7802098e-05 -0.018872127 0.048809424 -0.0046558473
00000000: 746a 333c 1d00 71bc e56e be3d baef 69bc
00000010: 2a7f c1bc 2f06 2fbc 1b14 9e3d b259 bfbc
00000020: 3f4f 8f3d 102e e3ba 47cc 02bd 5fdc 4ebc
00000030: 3735 1e3d 77e9 b1bc c7d3 ab3a 6a78 a13d
00000040: d536 303d f0e2 edbc 4a22 713b de8a b13c
00000050: 11f0 1cbc ef4c b53d cf71 1d3d b765 653c
00000060: 28f6 e93c 89b2 533d 7093 033d da52 a43c
00000070: d65f ac3d 6cd3 2d3c 6851 8d3d bb87 bd3d
00000080: c63f 51bc 3739 843d f1e5 9cbc d8ee 3b3c
00000090: 8c93 3c3d 1831 bf3d d484 133d f512 7b3d
000000a0: 556d 343d 5984 a83d 681c 42ba 986c f73c
000000b0: 7f51 633d 2d6b d43c 7548 113d 8c20 0d3d
000000c0: 7f6b 753c 0808 493d 4a18 96bc 4756 8d3d
000000d0: 5d46 3dbd 8950 2d3d 354d 1e3d 551e 3b3d
000000e0: 04ef 623d 5fc8 df3b 7db5 ca3a 127b 6d3d
000000f0: 8e09 3e3c 0b11 d43d 8c77 9f3d 91d5 e83b
00000100: a8ba 4c3d aa9c 653d 391a 4abc 0191 22bd
00000110: b250 98bc f46c 343d 7ff1 223d 33c9 ce3b
00000120: c474 913d 6e4e 953c 09fe 003c bf3d 59bd
00000130: 535c bf3d 9f22 783d f2c5 383c 0ee7 a23d
00000140: 259e 0cbd 6b03 893d ee2c d93d fe16 873d
00000150: bb6d 343d 3bca c33c cbae 923d f12b d93d
00000160: 6f32 8d3d 7a4b d83d 3469 7fbc 314e a93d
00000170: b86f 903d e602 8e3c 16b1 053d ea9f d93c
00000180: b600 913c 675a b13c 8130 763d 5d13 2d3d
00000190: 36ae 823d c33a 943d b59a 363d 1ce0 8f3d
000001a0: 61f0 4d3d 0105 753d c1a4 c63d 2182 dd3d
000001b0: bdb1 a63a e7c4 823d fa6a c93c 5fc3 76bc
000001c0: 6b7f b53d e1b5 373c 84e4 8fbc b6cd d4bb
000001d0: 5373 b43d 420b 393c 3f58 7d3c 2c5a af3d
000001e0: 64d8 8b3d 8990 233d fe07 5dbc 5019 d33c
000001f0: b755 95b7 b899 9abc 64ec 473d 1490 98bb

weight f4 [32, 128, 3, 3]
0.029365681 -0.008193865 0.04346043 0.029935606 -0.033805206 -0.054867167 -0.00039705372 0.02647508
-0.012188957 -0.03341517 -0.010314217 0.040020116 0.024535697 0.074801065 0.034692045 0.0030521678
-0.0181455 0.09259858 -0.037115198 0.072117776 -0.0030161145 0.036482785 0.07962304 0.045073517
-0.03423692 -0.030277655 0.0038839842 0.0072172596 -0.010334098 -0.021228872 -0.033945512 -0.05827888
-0.03811762 0.0117645245 0.020036405 -0.0016618868 -0.014666098 -0.06362064 -0.005262692 -0.032034855
-0.02615625 -0.02487365 0.025760943 -0.016050424 0.015883949 -0.0019477587 0.03153702 0.035300955
0.023453204 0.0709062 0.07453304 0.0048765903 0.04931851 0.001107385 0.027496258 -0.04594053
-0.00094372896 0.035383333 -0.07088439 0.0062979246 0.015411893 -0.023386495 0.041395552 0.0033483594
0.06066734 0.079570904 0.011982433 0.005626464 0.0350162 0.033500746 -0.013923807 0.059707902
-0.009008968 0.007902398 0.013870061 -0.018711027 -0.022811014 0.00043102488 -0.04529761 -0.021046827
-0.04257174 -0.0034130241 0.003226591 0.0012398011 -0.064631805 0.04526925 0.018461479 -0.009067912
-0.04364809 0.031663466 -0.049023103 0.003967067 0.05499821 0.049477622 0.06309659 0.11266848
0.008606144 -0.02497334 -0.0064746975 0.0015261791 0.01908673 0.08683888 0.011480493 0.057786286
0.04172994 0.015702732 0.029838424 0.034751523 -0.012187025 0.021541107 0.015255937 -0.009614058
-0.054469556 0.007697893 -0.018806964 -0.027640155 -0.006501863 0.04393442 -0.014509344 -0.0049788915
0.005478884 -0.07711081 -0.0065274527 -0.026475247 -0.04189054 -0.023652319 -0.0011227241 0.020165196
0.040629078 -0.049064994 0.032707907 0.021412771 -0.026885802 0.07010131 0.034094565 0.016464276
0.047087517 0.032377258 0.010076018 0.06444545 0.05651085 0.003967357 0.09481672 0.052353982
0.004334671 0.03179681 -0.005194042 0.06556079 -0.018569151 -0.008078866 -0.014976066 -0.043593165
0.01704395 -0.023428114 0.010270464 -0.021450805 -0.030162027 0.033853732 0.010186762 -0.041588012
-0.0065196846 -0.0065364847 0.022648701 0.025416262 0.06406046 -0.056119777 0.044440135 0.052448303
-0.0036017522 0.07196749 0.02091524 -0.028528119 -0.0055616084 -0.0031486715 -0.0066403793 -0.018557101
0.01929373 0.0015475572 -0.03145772 -0.0009178745 0.019968245 0.0207657 -0.0024565377 -0.07012896
-0.035949036 0.021198185 -0.04785179 -0.021006975 -0.03518317 -0.04807066 0.05943579 0.056420144
0.02332745 0.094397046 0.029601447 0.01944057 0.008001292 0.05866223 0.0035733767 -0.056618605
-0.016844122 -0.0571794 0.016455017 -0.024397451 -0.008280107 0.012477828 0.031227648 0.0042746244
0.04164186 0.009126722 -0.04518124 0.020259127 0.011201956 0.011282176 -0.001579941 0.0062446073
-0.032398887 0.021236604 0.05376126 0.005964576 0.04906368 0.07209512 0.032799814 0.00604289
-0.0015276406 0.018324394 -0.008383785 0.058606766 0.01974291 0.07742288 0.085948125 0.029702818
0.08528263 0.059909336 0.027765132 0.021043165 0.05301083 0.046974566 0.05632532 0.033880476
0.05752921 0.044271797 0.06373599 0.015255484 0.026271446 -0.028440624 0.04278424 0.022697672
0.021088788 0.0034665558 -4.9786082e-05 -0.003832004 -0.0254331 -0.002270434 0.035180174 -0.07146495
00000000: 4c90 f03c 903f 06bc 9003 323d 843b f53c
00000010: 5477 0abd 65bc 60bd a62b d0b9 44e2 d83c
00000020: 31b4 47bc 58de 08bd f6fc 28bc 22ec 233d
00000030: 16ff c83c 4d31 993d 3f19 0e3d e106 483b
00000040: dfa5 94bc 53a4 bd3d 1b06 18bd 7cb2 933d
00000050: 01aa 45bb f96e 153d 6811 a33d 029f 383d
00000060: 033c 0cbd d808 f8bc 718a 7e3b c37e ec3b
00000070: 5950 29bc 2ce8 adbc 730a 0bbd d6b5 6ebd
00000080: 3921 1cbd febf 403c 6323 a43c abd3 d9ba
00000090: 134a 70bc 8a4b 82bd a972 acbb fb36 03bd
000000a0: a245 d6bc d3c3 cbbc 9d08 d33c 2e7c 83bc
000000b0: 0e1f 823c f04b ffba f62c 013d bc97 103d
000000c0: ef20 c03c 4537 913d c7a4 983d cecb 9f3b
000000d0: 3502 4a3d ad25 913a d53f e13c 232c 3cbd
000000e0: 9464 77ba 1dee 103d d62b 91bd d25e ce3b
000000f0: 2a82 7c3c 0995 bfbc 628e 293d 2670 5b3b
00000100: 517e 783d 12f6 a23d f751 443c 335e b83b
00000110: 266d 0f3d 1438 093d ae20 64bc 4690 743d
00000120: 5a9a 13bc 0f79 013c 413f 633c de47 99bc
00000130: 2ade babc 2efb e139 fd89 39bd 656a acbc
00000140: b45f 2ebd 0bad 5fbb 3775 533b d280 a23a
00000150: ae5d 84bd 406c 393d 873c 973c 9491 14bc
00000160: 57c8 32bd 8db1 013d 73cc 48bd 2cfe 813b
00000170: ce45 613d 0ca9 4a3d c938 813d bbbe e63d
00000180: c900 0d3c e494 ccbc b329 d4bb 130a c83a
00000190: c65b 9c3c 95d8 b13d ad18 3c3c 50b1 6c3d
000001a0: 03ed 2a3d 04a3 803c b66f f43c 9d57 0e3d
000001b0: 16ac 47bc fa76 b03c 0af4 793c 4884 1dbc
000001c0: 781b 5fbd 9b3e fc3b 1011 9abc 9b6d e2bc
000001d0: 940d d5bb 94f4 333d 99b8 6dbc f825 a3bb
000001e0: 3688 b33b 46ec 9dbd 3ee4 d5bb 9ee2 d8bc
000001f0: 6a95 2bbd 82c2 c1bc 5f28 93ba 7b31 a53c
00000200: ad6a 263d 60f8 48bd baf8 053d d669 af3c
00000210: 9d3f dcbc 4791 8f3d bea6 0b3d 17e0 863c
00000220: d7de 403d 049e 043d e215 253c fafb 833d
00000230: ec77 673d 9a00 823b 452f c23d 2171 563d
00000240: db09 8e3b 5f3d 023d c832 aabb bc44 863d
00000250: 551e 98bc 385d 04bc 2c5e 75bc bf8e 32bd
00000260: c19f 8b3c 51ec bfbc 7345 283c 99b9 afbc
00000270: 5b16 f7bc 36aa 0a3d 60e6 263c 3158 2abd
00000280: 14a3 d5bb 0230 d6bb c589 b93c c435 d03c
00000290: 2132 833d dadd 65bd dc06 363d 08d4 563d
000002a0: 600b 6cbb b163 933d 7056 ab3c cdb3 e9bc
000002b0: 273e b6bb f159 4ebb 8a97 d9bb 1005 98bc
000002c0: e20d 9e3c 67d7 ca3a cfd9 00bd 849d 70ba
000002d0: 7294 a33c d41c aa3c ddfd 20bb c69f 8fbd
000002e0: 4c3f 13bd d1a7 ad3c 3d00 44bd d216 acbc
000002f0: 3a1c 10bd bee5 44bd f172 733d cf18 673d
00000300: 3519 bf3c 3d53 c13d bc7e f23c d541 9f3c
00000310: da17 033c ce47 703d 502f 6a3b e9e8 67bd
00000320: affc 89bc f234 6abd accc 863c 2add c7bc
00000330: 49a9 07bc ce6f 4c3c 20d1 ff3c 2612 8c3b
00000340: a890 2a3d 3f88 153c f70f 39bd 78f6 a53c
00000350: 6988 373c e0d8 383c 0616 cfba 909f cc3b
00000360: b2b4 04bd 63f8 ad3c c434 5c3d 7d72 c33b
00000370: fff6 483d 9ba6 933d 1959 063d 6f03 c63b
00000380: 1d3b c8ba 0a1d 963c 255c 09bc a60d 703d
00000390: e2bb a13c e38f 9e3d 9205 b03d 5353 f33c
000003a0: a9a8 ae3d 7e63 753d b473 e33c b762 ac3c
000003b0: e221 593d 6768 403d 61b5 663d 41c6 0a3d
000003c0: c0a3 6b3d 5856 353d 0488 823d 23f2 793c
000003d0: 3737 d73c 50fc e8bc 873e 2f3d 78f0 b93c
000003e0: 65c2 ac3c 282f 633b 66d1 50b8 5c22 7bbb
000003f0: 1459 d0bc 90cb 14bb 1619 103d 375c 92bd

bias f4 [32]
0.06095573 0.02912347 -0.016391318 0.020807467 0.06670079 0.05390597 0.025756288 0.021241443
0.07119045 0.01482734 0.067089595 0.03257017 0.0066845515 0.069590695 0.04929107 0.077978365
0.018988699 0.026088575 0.09234563 0.0586186 0.0079506645 0.025224565 0.035578623 0.044402964
0.025875814 0.050806712 0.044478104 0.04726872 0.062061418 0.035977773 -0.022435615 0.06680695
00000000: b7ac 793d 5894 ee3c 1647 86bc 6c74 aa3c
00000010: 6c9a 883d 82cc 5c3d dafe d23c 8902 ae3c
00000020: 4ccc 913d 5fee 723c 4566 893d 4c68 053d
00000030: 150a db3b 9185 8e3d 6fe5 493d 1fb3 9f3d
00000040: 308e 9b3c b5b7 d53c b51f bd3d 0f1a 703d
00000050: 8143 023c bfa3 ce3c e4ba 113d e2df 353d
00000060: 84f9 d33c b31a 503d ac2e 363d d89c 413d
00000070: 1d34 7e3d 6e5d 133d e5ca b7bc 15d2 883d

weight f4 [1, 32, 3, 3]
0.05913435 0.03795953 0.045275446 -0.059354924 0.1178047 0.07734466 0.0037768187 0.06460693
0.015555059 0.025347862 -0.02999982 -0.002411874 0.06121532 -0.09230739 0.017341465 -2.2775416e-06
0.0713732 0.11410808 -0.06774635 -0.05533243 -0.045677606 0.049457345 -0.021715716 0.00033507578
-0.024084974 -0.09182581 0.011151088 -0.028992375 0.016028509 -0.071107395 -0.08480555 -0.108484104
0.014093185 0.053420246 -0.07427145 0.03495377 0.02375324 -0.08560683 -0.079621084 0.0058048004
-0.08043607 -0.054583877 0.061698053 0.082282804 -0.035300005 0.017181858 -0.04922713 -0.049258925
0.053478748 -0.15643722 -0.058531184 -0.031422514 -0.039682265 0.06853096 -0.037694756 -0.025590196
-0.098932765 -0.075907774 -0.083125465 0.05231663 -0.1085124 0.024647124 0.066243 0.0211862
0.001420905 -0.027197843 0.08613758 -0.10178624 0.031359006 0.0019540626 0.08048467 -0.046823245
-0.03493447 0.08875787 -0.034986477 -0.062390324 0.08531684 0.054248866 0.052052923 0.116377935
0.09304576 0.07443575 0.008610767 0.07515584 0.015975902 -0.13225727 -0.01703378 -0.04863986
-0.030820087 -0.035569426 0.02814155 -0.09608038 -0.06663816 -0.057029944 -0.059731066 -0.10009263
0.04041726 -0.028765664 0.041308485 0.023806022 0.028967762 0.061577518 0.08334751 0.0073882295
0.03380936 0.08502479 -0.06716751 -0.008540718 0.020336125 -0.04962056 -0.01223031 -0.055980872
0.025132854 -0.067540064 -0.013936711 -0.001015178 -0.050599046 -0.020174386 -0.072250806 -0.05755441
-0.023691373 -0.10927763 -0.07382892 0.06927618 0.017566608 0.027877195 0.04517503 -0.0056599057
0.03553904 0.08105136 -0.040111553 -0.1118676 -0.044514146 -0.05886366 -0.06845596 -0.035558533
0.035687506 -0.039595224 -0.10736391 -0.13542928 -0.01102632 0.023372674 -0.037878554 0.04686651
-0.014552623 0.07088969 0.020265317 -0.082316495 -0.105923116 0.010197121 0.040893465 -0.05254738
-0.11172999 -0.071065776 -0.036011096 -0.007280509 -0.088126175 -0.024298804 -0.029537579 0.03966548
-0.13958186 -0.077956796 -0.053561866 0.07735622 0.024593947 0.0153402435 0.1698148 0.033644676
-0.006913189 0.10732272 0.011587208 -0.032692328 0.050596848 0.07417448 -0.0653059 -0.08517154
-0.00053787464 -0.055349912 0.07766588 0.11419003 0.016839048 -0.033207282 0.08151016 0.05907258
0.14600459 0.11785421 0.058095958 0.09906388 0.04382145 -0.038103875 0.08837981 0.03687461
-0.07338217 -0.071759894 0.051263303 -0.089288466 -0.017561007 0.015358994 0.033626202 0.016896814
0.01781751 0.07941315 0.11698095 0.07151666 0.05760749 0.030344084 -0.03264865 -0.015204501
-0.005898193 0.024239141 0.08284208 -0.10704989 0.02724401 -0.015102665 -0.024106251 -0.12387228
0.042751368 -0.020445403 0.035385054 -0.063918084 -0.06305352 0.13220207 0.026294366 0.104034565
-0.019779623 -0.050657127 -0.0060063 0.01687627 -0.0839927 0.10840301 0.07753645 -0.014751655
-0.071445405 0.09142094 -0.034683086 -0.14161113 -0.03975723 -0.036884133 -0.09872616 -0.073442616
0.032075386 0.0017682015 -0.08660304 0.040090285 0.074288346 -0.0736237 0.043808438 -0.1271261
0.08911965 0.087499775 0.0073733944 -0.03247442 -0.06639545 -0.041110054 -0.06960122 -0.017195376
00000000: dc36 723d 747b 1b3d bf72 393d 261e 73bd
00000010: 9743 f13d e166 9e3d 8184 773b a350 843d
00000020: a5da 7e3c 52a6 cf3c 2fc2 f5bc 8810 1ebb
00000030: eabc 7a3d a80b bdbd b00f 8e3c ded7 18b6
00000040: 1d2c 923d 7fb1 e93d 99be 8abd 42a4 62bd
00000050: 7118 3bbd c993 4a3d 28e5 b1bc 1cad af39
00000060: da4d c5bc 2c0f bcbd 0eb3 363c 6b81 edbc
00000070: 384e 833c c1a0 91bd 88ae adbd ea2c debd
00000080: 1ae7 663c 30cf 5a3d a11b 98bd af2b 0f3d
00000090: 2896 c23c a252 afbd 6110 a3bd 3236 be3b
000000a0: abbb a4bd 5893 5fbd 19b7 7c3d e383 a83d
000000b0: bd96 10bd f8c0 8c3c 63a2 49bd bac3 49bd
000000c0: 880c 5b3d 1431 20be 65be 6fbd e5b4 00bd
000000d0: df89 22bd f659 8c3d d165 1abd 88a2 d1bc
000000e0: 439d cabd 8975 9bbd af3d aabd f649 563d
000000f0: c03b debd c4e8 c93c 69aa 873d af8e ad3c
00000100: a93d ba3a 03ce debc e668 b03d 4e75 d0bd
00000110: 4d72 003d bb0f 003b 26d5 a43d bbc9 3fbd
00000120: 7217 0fbd b0c6 b53d fb4d 0fbd ff8c 7fbd
00000130: 98ba ae3d 0f34 5e3d 7235 553d 8e57 ee3d
00000140: c78e be3d c571 983d 2d14 0d3c 4eeb 993d
00000150: e5df 823c 736e 07be 6d8a 8bbc 973a 47bd
00000160: 687a fcbc 3fb1 11bd 1c89 e63c cac5 c4bd
00000170: 9679 88bd 3b98 69bd 90a8 74bd 5dfd ccbd
00000180: 928c 253d f8a5 ebbc 1633 293d d904 c33c
00000190: cd4d ed3c b538 7c3d 19b2 aa3d f618 f23b
000001a0: af7b 0a3d 7a21 ae3d 1f8f 89bd 5eee 0bbc
000001b0: f297 a63c ee3e 4bbd a361 48bc 334c 65bd
000001c0: 6ae3 cd3c 7252 8abd cd56 64bc b90f 85ba
000001d0: f240 4fbd c144 a5bc 3bf8 93bd 2cbe 6bbd
000001e0: 6914 c2bc f3cc dfbd 9e33 97bd abe0 8d3d
000001f0: d9e7 8f3c b75e e43c 7409 393d bb76 b9bb
00000200: 6291 113d 41fe a53d 034c 24bd d71a e5bd
00000210: 7754 36bd 051b 71bd a332 8cbd d3a5 11bd
00000220: 102d 123d 9a2e 22bd 9ce1 dbbd f9ad 0abe
00000230: bda7 34bc 0d78 bf3c 8b26 1bbd 19f7 3f3d
00000240: 206e 6ebc 9d2e 913d 7303 a63c 8d95 a8bd
00000250: 38ee d8bd d311 273c e87f 273d ec3b 57bd
00000260: b1d2 e4bd ef8a 91bd 5f80 13bd 5691 eebb
00000270: 7f7b b4bd 490e c7bc cbf8 f1bc 4578 223d
00000280: 8cee 0ebe d0a7 9fbd b063 5bbd f06c 9e3d
00000290: 3f79 c93c a555 7b3c eee3 2d3e 00cf 093d
000002a0: 0888 e2bb 04cc db3d 46d8 3d3c 64e8 05bd
000002b0: a43e 4f3d cae8 973d 1abf 85bd 6b6e aebd
000002c0: 2800 0dba 97b6 62bd 4a0f 9f3d 76dc e93d
000002d0: 0bf2 893c 5c04 08bd ccee a63d 17f6 713d
000002e0: 3a82 153e 8c5d f13d 07f6 6d3d 01e2 ca3d
000002f0: 1f7e 333d cf12 1cbd 7900 b53d d509 173d
00000300: 6449 96bd daf6 92bd 78f9 513d dfdc b6bd
00000310: 1adc 8fbc 4aa4 7b3c a1bb 093d 306b 8a3c
00000320: 07f6 913c 5da3 a23d b593 ef3d 5477 923d
00000330: d5f5 6b3d 2894 f83c 97ba 05bd 4d1c 79bc
00000340: a145 c1bb 2a91 c63c 1ca9 a93d f93c dbbd
00000350: d42e df3c 2b71 77bc 797a c5bc c0b0 fdbd
00000360: 0f1c 2f3d 1e7d a7bc ebef 103d 7ce7 82bd
00000370: 3422 81bd fb5f 073e 4867 d73c 1310 d53d
00000380: e008 a2bc d97d 4fbd 7fd0 c4bb 1a40 8a3c
00000390: 5d04 acbd 6602 de3d 6ecb 9e3d edb0 71bc
000003a0: f851 92bd e73a bb3d da0f 0ebd 8202 11be
000003b0: 7ad8 22bd d113 17bd f130 cabd 1569 96bd
000003c0: 7b61 033d ffc2 e73a ef5c b1bd b635 243d
000003d0: 7d24 983d 06c8 96bd 7a70 333d 582d 02be
000003e0: 5d84 b63d 1533 b33d 849c f13b e603 05bd
000003f0: 56fa 87bd 0463 28bd 168b 8ebd 51dd 8cbc
