net_model.pt (torch, 307049 bytes, 7 tensors)

weight f4 [32, 3, 3, 3]
-0.04313771 -0.16705811 -0.18419616 0.08899689 -0.18145251 -0.058416974 -0.12616643 0.05384785
0.004407948 0.24732085 -0.002248349 0.042580724 0.026111785 0.042067748 -0.0067881383 -0.026687462
-0.0936586 0.12928273 -0.106411815 0.22495224 0.19758932 -0.10283372 0.09856886 0.009728719
-0.13797493 0.049560864 -0.12018953 -0.14615044 0.08436151 -0.12434136 -0.08387651 -0.15883315
-0.052126266 0.08307899 -0.09964368 0.18074529 0.08953547 0.08699317 -0.09501547 0.1613281
0.15359011 0.13620314 0.15322784 -0.0402063 0.121644884 0.0547743 -0.08855145 0.09364456
-0.21994492 -0.1630003 -0.20780765 0.032542445 -0.19923945 0.1295603 0.18575723 0.11104288
0.0058220937 -0.008394821 0.023674728 0.0005462005 -0.1753787 -0.21501282 0.20491569 0.15727158
0.20068488 -0.04290294 0.16449864 -0.0014803535 0.07403407 0.016080424 -0.026657198 -0.005939951
-0.063716054 -0.073006965 0.14100567 -0.042868022 0.14291261 -0.014652216 -0.06543161 0.23815209
0.13253671 -0.21028563 0.16358484 -0.18224737 0.028570741 -0.0078006024 0.076558046 -0.059463564
-0.042748805 -0.078913614 -0.0019476267 -0.0126255285 0.16833472 0.07308838 -0.089612104 -0.16649923
-0.1663074 0.008516568 -0.105896816 -0.10530755 -0.14737028 -0.17913166 -0.005929384 -0.09796112
0.124739185 -0.18705353 0.137295 -0.005059311 0.121528514 -0.12289341 0.14236377 0.024830826
-0.23500831 -0.05249318 0.1310445 -0.10838217 -0.19687212 0.0839382 0.17057018 0.15507688
0.061427213 0.045944702 -0.09315328 0.0054515833 -0.12230566 -0.017587023 -0.016003557 0.07090765
0.06456352 0.0018445619 0.19472127 0.021201696 -0.02770344 0.17968673 -0.13248874 -0.11287078
-0.03488842 -0.10503142 -0.10039878 -0.123036504 0.14708441 -0.04716924 0.18297814 -0.08370692
0.011463812 -0.045096517 -0.11034877 0.22237568 -0.04709174 -0.13129687 -0.08629407 -0.08247883
0.15210836 0.083751164 0.17888607 0.1824624 0.07447603 0.121953994 -0.22684233 -0.09283775
0.11177096 -0.20712978 0.062384635 -0.035615508 -0.037304968 -0.048329998 0.012699157 -0.16607359
0.01940596 0.118231766 -0.15634543 -0.13348615 0.1419008 -0.16399667 -0.05480603 0.22783154
0.1594681 0.036453884 -0.092029646 -0.13333914 -0.18734547 -0.09246251 0.16616902 -0.269095
-0.060703468 0.01080358 -0.20929965 0.14257742 0.046077427 0.014311921 0.11471741 0.0679873
0.08558944 0.13072208 0.12063766 -0.1884914 0.090075724 -0.026384043 0.20768942 -0.14209472
0.042132143 0.016736645 -0.24378844 0.08604986 -0.18166967 0.1662735 0.15402934 -0.14465214
0.045971796 -0.059894834 0.099117704 0.008954603 0.14010699 0.054315988 -0.1414409 0.019608952
-0.023678724 -0.08567155 -0.07025306 -0.045191366 -0.030235982 0.04068636 -0.144542 0.13704738
0.11067953 -0.08745406 -0.1328046 -0.04457823 0.14752473 -0.027707879 0.17386489 0.14730695
-0.1797 0.08181222 0.17180829 0.04570196 -0.08493647 -0.11983797 0.11089131 -0.23344667
0.014436608 -0.030830473 -0.18171754 0.018695246 0.10704862 -0.17598431 0.0236668 0.023800218
0.17608815 0.099834286 0.13588965 -0.17641279 0.0076767257 0.14794485 -0.055439778 -0.12859632
00000000: 2bb1 30bd 4811 2bbe eb9d 3cbe 0044 b63d
00000010: b0ce 39be a346 6fbd c631 01be 908f 5c3d
00000020: 8c70 903b ad41 7d3e 0959 13bb 2069 2e3d
00000030: 62e8 d53c 3b4f 2c3d 086f debb aa9f dabc
00000040: 14d0 bfbd b162 043e 70ee d9bd e159 663e
00000050: db54 4a3e 7c9a d2bd 78de c93d 3465 1f3c
00000060: 4d49 0dbe 5500 4b3d ee25 f6bd 76a8 15be
00000070: bac5 ac3d afa6 febd 73c7 abbd 28a5 22be
00000080: 5a82 55bd 5125 aa3d fc11 ccbd 4b15 393e
00000090: 5f5e b73d 7a29 b23d 7997 c2bd 3233 253e
000000a0: ba46 1d3e d678 0b3e c2e7 1c3e 5caf 24bd
000000b0: f420 f93d 045b 603d 765a b5bd b8c8 bf3d
000000c0: 3e39 61be 8de9 26be 87cb 54be 3a4b 053d
000000d0: 6d05 4cbe 75ab 043e 2537 3e3e 736a e33d
000000e0: 43c7 be3b 6e8a 09bc 81f1 c13c e52e 0f3a
000000f0: 7996 33be 522c 5cbe 6bd5 513e cd0b 213e
00000100: 5680 4d3e feba 2fbd 5572 283e 6c08 c2ba
00000110: 2d9f 973d 18bb 833c 3260 dabc eca3 c2bb
00000120: 907d 82bd ad84 95bd ca63 103e 6196 2fbd
00000130: af57 123e d90f 70bc 0201 86bd 24de 733e
00000140: b4b7 073e 1e55 57be c982 273e 0e9f 3abe
00000150: 300d ea3c 329c ffbb 77ca 9c3d 1190 73bd
00000160: 5f19 2fbd 769d a1bd 8247 ffba 4edb 4ebc
00000170: f05f 2c3e 5caf 953d 8d86 b7bd c67e 2abe
00000180: 7d4c 2abe 1389 0b3c 6ee0 d8bd 7cab d7bd
00000190: 3ce8 16be 4a6e 37be 474b c2bb d79f c8bd
000001a0: 4277 ff3d f68a 3fbe 0f97 0c3e 94c8 a5bb
000001b0: f1e3 f83d 8aaf fbbd cfc7 113e 046a cb3c
000001c0: 05a6 70be 1703 57bd 8830 063e 79f7 ddbd
000001d0: d898 49be cae7 ab3d f3a9 2e3e 79cc 1e3e
000001e0: 1a9b 7b3d 8330 3c3d 26c7 bebd 32a3 b23b
000001f0: 647b fabd a912 90bc e419 83bc 0838 913d
00000200: e139 843d 3ac5 f13a 0365 473e 2eaf ad3c
00000210: 53f2 e2bc ccff 373e 21ab 07be cc28 e7bd
00000220: 29e7 0ebd b71a d7bd e09d cdbd 90fa fbbd
00000230: 4c9d 163e 8834 41bd 9f5e 3b3e 896e abbd
00000240: b6d2 3b3c 20b7 38bd 89fe e1bd 73b6 633e
00000250: 45e3 40bd b072 06be f2ba b0bd a9ea a8bd
00000260: 4bc2 1b3e bb85 ab3d e92d 373e 6cd7 3a3e
00000270: e486 983d 04c3 f93d 5b49 68be b821 bebd
00000280: 2ce8 e43d d419 54be 0887 7f3d 91e1 11bd
00000290: 18cd 18bd adf5 45bd 2010 503c 320f 2abe
000002a0: 3ff9 9e3c 7f23 f23d 0419 20be 98b0 08be
000002b0: 714e 113e beee 27be 4a7c 60bd ac4c 693e
000002c0: 9b4b 233e ab50 153d 0a7a bcbd 0e8a 08be
000002d0: 7ed7 3fbe fc5c bdbd 3628 2a3e d2c6 89be
000002e0: 33a4 78bd 8001 313c a652 56be d1ff 113e
000002f0: afbb 3c3d 8c7c 6a3c f6f0 ea3d ed3c 8b3d
00000300: 8449 af3d 02dc 053e e110 f73d e403 41be
00000310: 9f79 b83d 5923 d8bc 89ac 543e 4781 11be
00000320: c192 2c3d 4a1b 893c ada3 79be e93a b03d
00000330: 9d07 3abe 9a43 2a3e deb9 1d3e b11f 14be
00000340: ec4c 3c3d 4954 75bd 39fe ca3d 54b6 123c
00000350: 3578 0f3e 717a 5e3d e2d5 10be f4a2 a03c
00000360: e2f9 c1bc 9174 afbd d6e0 8fbd 951a 39bd
00000370: 73b1 f7bc bea6 263d d102 14be 2656 0c3e
00000380: f3ab e23d 1d1b b3bd eefd 07be a997 36bd
00000390: b910 173e a2fb e2bc a309 323e a2d7 163e
000003a0: 4703 38be 2a8d a73d 83ee 2f3e fa31 3b3d
000003b0: 2cf3 adbd 9c6d f5bd fc1a e33d a50c 6fbe
000003c0: 8687 6c3c 3090 fcbc 2a14 3abe c626 993c
000003d0: 4f3c db3d 3b35 34be e1e0 c13c adf8 c23c
000003e0: 7450 343e eb75 cc3d a826 0b3e 8ea5 34be
000003f0: 0b8d fb3b db7e 173e d214 63bd c1ae 03be

bias f4 [32]
0.070601344 -0.18059576 -0.12500776 0.08482266 0.17219749 0.21531518 0.0639006 -0.06004044
-0.039779406 -0.10389458 0.15530378 0.019001517 0.0725207 0.03550998 0.11079969 0.049347714
-0.03468428 0.15125953 0.098085 0.00039309805 0.009475835 -0.10727948 0.10106399 0.18182775
-0.19560194 0.11746385 0.018796613 -0.13137205 -0.077812955 -0.0629201 -0.11599112 -0.06236647
00000000: 7097 903d 18ee 38be 0902 00be 81b7 ad3d
00000010: 8a54 303e 957b 5c3e 51de 823d f7ec 75bd
00000020: bbef 22bd aec6 d4bd f407 1f3e 12a9 9b3c
00000030: bc85 943d ea72 113d f3ea e23d d420 4a3d
00000040: 1b11 0ebd c7e3 1a3e cae0 c83d ba18 ce39
00000050: 8840 1b3c 58b5 dbbd a3fa ce3d 0e31 3a3e
00000060: e04b 48be e390 f03d 5bfb 993c 6586 06be
00000070: 665c 9fbd 41dc 80bd c18c edbd fc73 7fbd

weight f4 [128, 32, 3, 3]
-0.026581936 -0.048537925 0.08064462 -0.03773944 -0.034095023 -0.058458444 -0.02124003 0.04446438
0.00312845 0.008653562 0.04430621 -0.015096162 -0.011567229 -0.052841753 -0.09605222 0.016139388
-0.071453825 0.036145292 0.024070913 -0.00082460453 -0.032651413 -0.032136135 0.09589861 0.0074490584
0.025202146 0.06523541 0.03484857 0.07580246 0.01240397 -0.033609845 0.042855494 0.04271857
0.031362377 0.021456368 -0.029148228 -0.027483325 0.009627193 0.02719744 0.008639861 0.003030422
0.08350262 0.06438827 0.022433823 0.009645206 0.03990387 -0.060195573 -0.025013568 0.043648947
-0.0038149846 0.043589924 -0.051060174 -0.059325833 0.05607384 0.012607037 0.039346077 -0.011134882
0.029506553 -0.06714619 0.08045136 -0.049294893 -0.020051194 0.017792791 -0.076787986 0.038576443
-7.3481184e-05 -0.03941215 0.0013420478 -0.023285424 0.052271955 0.03827912 -0.0071766325 0.0419332
0.07457041 -0.04917045 0.07574442 0.046954248 -0.06024189 0.023603894 -0.0279529 0.033912804
0.038000487 -0.034439143 0.04838598 -0.005662149 0.007174917 -0.03049658 -0.014058935 -0.009899527
-0.06625851 0.007165241 -0.012248789 0.030317135 0.0031913086 0.026982345 -0.032846328 -0.06198152
-0.036911678 -0.0021896109 0.025134068 0.03448177 0.000959805 0.031650353 0.04269437 0.043930233
-0.0027122882 -0.0021207684 0.020717824 0.031127173 -0.031666383 0.054508246 0.07269675 -0.056592654
0.034994047 0.03516525 0.021133175 -0.06929137 -0.06473101 -0.00078437635 -0.036242433 0.06338591
-0.00835197 -0.034010552 -0.07387374 0.07466203 0.042864546 -0.05899161 -0.029471625 0.038386952
-0.043271348 0.039974857 -0.019502137 -0.015032299 0.046626884 0.08983322 0.042098444 -0.012042918
-0.021945562 -0.07175231 0.007123931 0.10146883 0.015183098 -0.054199293 0.047470953 -0.0018781072
-0.028712567 0.040525965 0.04841855 0.021213934 -0.03580862 0.043956324 -0.081342734 -0.05505254
0.015286549 0.05177113 0.0007592835 0.018016234 -0.044630986 -0.08999827 0.062454604 -0.030163798
0.00087933865 -0.024399448 0.021841716 0.04557401 0.062675856 0.019926013 0.031485207 0.044108614
-0.05265552 0.001765329 -0.08146765 -0.019300131 -0.050362572 -0.007852902 0.10783372 0.023509268
0.028886138 0.01825518 -0.012237583 0.09582267 0.031124359 0.07295763 -0.06182207 0.021266416
0.014990097 -0.05281444 0.025625538 0.0075318897 0.024472563 -0.032515228 0.02436159 -0.045231987
0.034110203 0.08035999 0.055671293 0.04076479 0.036541063 0.038869 -0.013778024 0.0035220073
0.00917852 -0.03209006 -0.039789222 0.015458758 -0.007621642 -0.0017742611 0.082079485 0.011647521
0.029256318 0.061279844 -0.048302747 0.044296965 0.013180437 -0.054774288 -0.12866187 -0.12265635
0.08892662 0.03219487 0.0010482736 0.025017628 -0.024921361 0.05632145 0.01430819 0.018236531
-0.05614039 -0.07616508 0.005610567 0.035319764 -0.040822774 0.039367825 -0.09027343 -0.022563986
0.04171946 -0.018448416 -0.041219193 -0.029802922 -0.0035887312 -0.048275836 -0.06828065 0.010250693
0.010643008 0.04971547 -0.0061536175 0.047529954 0.024343207 0.03817459 -0.045044735 -0.011205002
-0.047893576 0.014756698 -0.054603007 0.009861708 0.06273728 0.02077579 -0.012959186 -0.0125525
00000000: 5cc2 d9bc b4cf 46bd 0229 a53d ac94 1abd
00000010: 39a7 0bbd 1f72 6fbd 92ff adbc 4820 363d
00000020: ae06 4d3b abc7 0d3c 6e7a 353d e555 77bc
00000030: 7a84 3dbc 9870 58bd 07b7 c4bd c036 843c
00000040: 6256 92bd 160d 143d 5d30 c53c 462a 58ba
00000050: 7dbd 05bd 2ea1 03bd 7e66 c43d 3b17 f43b
00000060: bb74 ce3c 259a 853d 60bd 0e3d 523e 9b3d
00000070: 053a 4b3c 7aaa 09bd 3e89 2f3d abf9 2e3d
00000080: d675 003d 44c5 af3c 44c8 eebc b624 e1bc
00000090: 60bb 1d3c 2acd de3c 348e 0d3c 0b9a 463b
000000a0: 6c03 ab3d ffdd 833d 23c7 b73c ed06 1e3c
000000b0: 3e72 233d a28f 76bd 41e9 ccbc 3dc9 323d
000000c0: d204 7abb 598b 323d 7924 51bd a5ff 72bd
000000d0: afad 653d bf8d 4e3c 5a29 213d 156f 36bc
000000e0: bab7 f13c f183 89bd afc3 a43d 71e9 49bd
000000f0: 6742 a4bc 30c2 913c 0543 9dbd 5502 1e3d
00000100: e919 9ab8 a26e 21bd a7e7 af3a 13c1 bebc
00000110: 1e1b 563d 91ca 1c3d f529 ebbb 26c2 2b3d
00000120: 5fb8 983d f466 49bd e41f 9b3d 1953 403d
00000130: 33c0 76bd f45c c13c 7bfd e4bc 27e8 0a3d
00000140: 66a6 1b3d 0f10 0dbd 6130 463d 8c89 b9bb
00000150: 911b eb3b f7d3 f9bc 7357 66bc a031 22bc
00000160: 8bb2 87bd 66ca ea3b 25af 48bc a45b f83c
00000170: 4625 513b 140a dd3c df89 06bd 56e0 7dbd
00000180: b330 17bd 937f 0fbb f6e5 cd3c c23c 0d3d
00000190: 6c9b 7b3a cda3 013d 4be0 2e3d 30f0 333d
000001a0: a5c0 31bb 97fc 0abb 6db8 a93c 6afe fe3c
000001b0: 9cb4 01bd 0a44 5f3d 09e2 943d b3cd 67bd
000001c0: eb55 0f3d 7009 103d 7b1f ad3c a2e8 8dbd
000001d0: b191 84bd 9b9e 4dba f272 14bd 79d0 813d
000001e0: b4d6 08bc a64e 0bbd 1e4b 97bd 68e8 983d
000001f0: bc92 2f3d 30a1 71bd 7a6e f1bc a33b 1d3d
00000200: 4c3d 31bd adbc 233d f2c2 9fbc 084a 76bc
00000210: d5fb 3e3d 7bfa b73d 6b6f 2c3d a94f 45bc
00000220: 2ec7 b3bc e0f2 92bd dd6f e93b e4ce cf3d
00000230: 87c2 783c 1400 5ebd e770 423d d22a f6ba
00000240: 9e36 ebbc 8efe 253d 8852 463d d8c8 ad3c
00000250: 0fac 12bd 8c0b 343d 0597 a6bd c67e 61bd
00000260: 6f74 7a3c f70d 543d a70a 473a c896 933c
00000270: fbce 36bd 0351 b8bd 66d0 7f3d 121a f7bc
00000280: 6b83 663a 5ae1 c7bc 66ed b23c d0ab 3a3d
00000290: 335c 803d e13b a33c a2f6 003d 3cab 343d
000002a0: 51ad 57bd 9d62 e73a 83d8 a6bd 4f1b 9ebc
000002b0: fc48 4ebd 75a9 00bc edd7 dc3d 8296 c03c
000002c0: 9fa2 ec3c e38b 953c 2580 48bc ad3e c43d
000002d0: 83f8 fe3c cf6a 953d 2439 7dbd e836 ae3c
000002e0: 0699 753c f453 58bd a6ec d13c 12ce f63b
000002f0: af7a c83c b02e 05bd f591 c73c 2d45 39bd
00000300: 24b7 0b3d c793 a43d 9507 643d fbf8 263d
00000310: 15ac 153d 1a35 1f3d 39bd 61bc 7ad1 663b
00000320: 8161 163c de70 03bd 06fa 22bd bb46 7d3c
00000330: f8be f9bb 538e e8ba 4a19 a83d 3ed5 3e3c
00000340: f2aa ef3c 9300 7b3d 1ad9 45bd bc70 353d
00000350: c2f2 573c 015b 60bd f0bf 03be 4133 fbbd
00000360: 291f b63d c5de 033d 3a66 893a c5f1 cc3c
00000370: e227 ccbc 52b1 663d e66c 6a3c c764 953c
00000380: 77f3 65bd 70fc 9bbd d9d8 b73b 75ab 103d
00000390: c835 27bd 2840 213d 47e1 b8bd 1cd8 b8bc
000003a0: 06e2 2a3d 2221 97bc 75d5 28bd 4225 f4bc
000003b0: eb30 6bbb e2bc 45bd bad6 8bbd 86f2 273c
000003c0: 0360 2e3c 73a2 4b3d 49a4 c9bb c5ae 423d
000003d0: 686b c73c f55c 1c3d d480 38bd 2f95 37bc
000003e0: 0e2c 44bd 14c6 713c 67a7 5fbd 0093 213c
000003f0: 677c 803d fd31 aa3c c452 54bc 00a9 4dbc

bias f4 [128]
0.06488056 0.014731007 0.029981863 -0.047018148 -0.07624997 -0.008868966 -0.0074750846 -0.034219746
0.037165646 0.06342234 0.061133657 -0.04993499 -0.022880591 -0.037924383 0.01355461 0.042649295
0.077428885 0.060234364 0.009451045 -0.016757462 0.010948619 0.037691537 0.06113409 -0.03987892
0.048751336 -0.05027919 -0.046689156 0.0045733307 0.044864133 -0.02101119 -0.017126169 0.08321603
-0.026359702 -0.008918585 0.009725943 -0.06263521 0.01947955 0.04894136 -0.0040771984 0.03207084
-0.02914304 -0.008556047 -0.04666939 0.09597629 -0.002285976 -0.009705944 0.06575521 0.029023707
-0.033204015 0.05116577 0.07484144 0.057513714 0.071183346 0.026490923 0.0067659607 0.051966418
-0.0098258685 -0.017139422 0.030205322 0.052158628 0.026951652 -0.029176336 0.06633322 0.08887974
0.0134298075 -0.027550608 0.07109414 0.0042582755 -0.029823653 0.006099153 0.06324875 0.060277116
-0.05723062 0.024793211 0.0634031 -0.015443753 -0.017282663 -0.00042914465 0.062322926 0.042051703
-0.010671979 -0.002933758 0.045806788 0.020160953 0.04465746 -0.014565814 0.0729142 0.0151190795
-0.026852258 0.011234552 0.043868046 -0.048047196 0.06206875 0.083983965 0.104257315 -0.012161445
0.06975413 0.061847344 0.020445121 0.03629045 0.046883572 0.069208056 -0.043590914 0.019106774
0.046614308 0.015768385 -0.044800874 -0.089867674 0.046867043 -0.0034547464 -0.031242138 0.009645491
0.015186235 -0.013887708 0.015577068 0.03479606 -0.05820159 -0.046248227 0.101069055 0.037730422
-0.022815289 -0.0048599523 -0.007870936 0.070669204 -0.049618296 0.048615817 0.05030692 0.013729818
00000000: 19e0 843d 525a 713c 869c f53c 1a96 40bd
00000010: f228 9cbd 244f 11bc 8ef1 f4bb 012a 0cbd
00000020: 013b 183d 92e3 813d 4967 7a3d a288 4cbd
00000030: 1470 bbbc 9956 1bbd 2814 5e3c 07b1 2e3d
00000040: 0993 9e3d 4fb8 763d 8ed8 1a3c f246 89bc
00000050: d661 333c 7162 1a3d bd67 7a3d 1458 23bd
00000060: 7baf 473d 8df1 4dbd 213d 3fbd e1db 953b
00000070: 74c3 373d a91f acbc 2e4c 8cbc 2a6d aa3d
00000080: 4df0 d7bc 421f 12bc 9059 1f3c e446 80bd
00000090: 9493 9f3c bc76 483d 059a 85bb b75c 033d
000000a0: 62bd eebc aa2e 0cbc 6728 3fbd 388f c43d
000000b0: 50d0 15bb ae05 1fbc abaa 863d 20c3 ed3c
000000c0: ef00 08bd 3393 513d 7846 993d 8093 6b3d
000000d0: 93c8 913d 7e03 d93c feb4 dd3b bdda 543d
000000e0: aefc 20bc f967 8cbc 2771 f73c 49a4 553d
000000f0: b6c9 dc3c 3603 efbc b6d9 873d 9506 b63d
00000100: b208 5c3c d0b1 e1bc ce99 913d 0189 8b3b
00000110: bc50 f4bc 67db c73b 9088 813d 23e5 763d
00000120: a86a 6abd 221b cb3c 7cd9 813d cc07 7dbc
00000130: 5f94 8dbc d2fe e0b9 5346 7f3d 683e 2c3d
00000140: 86d9 2ebc 4b44 40bb e69f 3b3d 9528 a53c
00000150: beea 363d 74a5 6ebc 0a54 953d 04b6 773c
00000160: 44f9 dbbc 2011 383c fbae 333d 23cd 44bd
00000170: cd3b 7e3d c9ff ab3d dc84 d53d cc40 47bc
00000180: 41db 8e3d a453 7d3d 877c a73c 4ba5 143d
00000190: fd08 403d f4bc 8d3d 638c 32bd cf85 9c3c
000001a0: a5ee 3e3d b32c 813c 1f81 37bd 8b0c b8bd
000001b0: a8f7 3f3d 0769 62bb 83ef ffbc 1f08 1e3c
000001c0: b0cf 783c 4589 63bc f536 7f3c 5086 0e3d
000001d0: ca64 6ebd c86e 3dbd 4bfd ce3d 378b 1a3d
000001e0: 21e7 babc 3c40 9fbb 19f5 00bc 04bb 903d
000001f0: 8e3c 4bbd 6121 473d a10e 4e3d 08f3 603c

weight f4 [32, 128, 3, 3]
-0.03830447 -0.016041713 0.016373314 0.02898314 0.013796294 -0.010050672 -0.010494628 0.0059571597
0.07512148 -0.024567852 0.03768423 0.057547808 0.015817966 0.12978576 0.010327047 0.018251352
0.025917334 0.030016271 -0.01562957 -0.009049047 -0.0061744866 -0.031318776 0.013681427 -0.019458652
-0.06984042 0.010278853 0.05083371 0.050264798 0.023139821 -0.0132114 0.019254474 -0.03890395
-0.026599605 -0.040933337 -0.0066373344 0.028882172 0.013195108 0.037990615 0.034169212 -0.008346469
-0.031526886 0.0003113609 0.05660886 0.038982574 0.05028417 0.0814321 0.0077270973 0.080066636
-0.054435004 -0.056042656 -0.02792104 0.043301303 -0.012002344 0.024570288 0.016624277 0.041062597
0.022757335 0.035292123 0.087504715 -0.00016639807 -0.0070743454 0.01752517 0.016681124 0.037796818
-0.010387219 0.039054103 -0.017996367 0.045704156 0.05842403 -0.0665723 0.0037302454 0.009125926
0.061480377 0.032144237 0.01718049 -0.012854743 -0.051425967 -0.007381775 -0.034143712 0.011772063
0.01804331 0.012461962 0.07112907 0.037227478 0.004167889 -0.025510944 -0.03766271 -0.053518303
-0.034912445 0.006762832 0.03847208 -0.030402103 0.034444034 -0.025331352 -0.07417389 -0.05528356
0.0054894057 0.004083787 -0.03209616 0.05328731 -0.00028427667 0.014786932 0.021150034 -0.035842054
0.047774225 -0.016740642 -0.0028163544 0.024816304 0.05005009 0.05364047 0.027777858 -0.019021498
0.00034201084 -0.009899693 -0.014922736 -0.029827308 -0.0031923144 0.03556968 0.048145343 0.061190434
-0.0029505354 0.043877672 0.039016064 -0.017937064 -0.02834169 -0.033267457 -0.016651584 -0.024592135
0.041589916 -0.023664726 0.009653052 0.05093676 -0.033210456 0.036401205 -0.014345132 -0.027839279
-0.014833473 0.0030129962 0.008915804 -0.060764804 -0.016045015 -0.039715983 -0.003905638 0.061979968
0.022360455 0.025495654 0.005612516 -0.034922276 -0.011724973 -0.033824347 -0.010330671 -0.015455609
0.04379391 0.05002651 -0.01946083 -0.036107622 0.03928842 0.014527231 -0.009080596 -0.018271025
-0.010191236 0.032925587 0.061043642 0.078857824 -0.006237769 -0.024069574 0.08230064 0.045539737
-0.03955889 -0.059965767 0.01337127 0.057608202 0.057204694 0.024353808 0.096576564 0.051920287
0.031653047 0.004614792 0.034358464 -0.036449015 0.051832527 0.04767579 0.0062576723 -0.025320493
0.028198186 0.06320965 0.05089061 0.0050482 0.029021466 0.007157105 0.042969733 0.025564386
-0.0013251893 -0.040566742 0.040419124 0.015861403 0.022216795 -0.070824 -0.018307295 0.0060781576
-0.002852611 -0.055614084 -0.0067328964 -0.04337206 -0.0040856525 -0.014702369 -0.00033456148 0.048437882
-0.006644963 0.0345347 0.0026638135 0.05274957 0.05811439 -0.005520139 0.0015460108 0.018436946
-0.011218474 -0.004508726 -0.0020799122 0.025623515 -0.029874679 -0.03247665 -0.005096872 0.023584567
0.051763583 -0.0027729066 0.04231906 0.030836549 -0.085317284 -0.0028203523 -0.005833832 0.0040393444
-0.021064788 -0.02337454 0.06031628 0.042105116 0.017295538 0.0059391377 -0.01061685 0.012924122
-0.050020225 -0.020064723 0.011315991 0.06729874 0.052718733 0.003681102 0.015707267 0.03626827
0.036171526 -0.013368987 0.013568683 0.00176236 0.065455355 0.044331845 -0.0071555353 0.01598261
00000000: 26e5 1cbd e969 83bc 5421 863c 0d6e ed3c
00000010: da09 623c 93ab 24bc a9f1 2bbc 4734 c33b
00000020: 4ad9 993d 8542 c9bc c75a 1a3d 40b7 6b3d
00000030: ae94 813c 8fe6 043e c632 293c dc83 953c
00000040: 9750 d43c afe4 f53c 9609 80bc 7442 14bc
00000050: 5953 cabb 1e48 00bd 1028 603c c067 9fbc
00000060: 7e08 8fbd a268 283c 0237 503d 76e2 4d3d
00000070: b98f bd3c a174 58bc 8fbb 9d3c c059 1fbd
00000080: 6ae7 d9bc b7a9 27bd ff7d d9bb 4e9a ec3c
00000090: 4b30 583c 0c9c 1b3d 04f5 0b3d a1bf 08bc
000000a0: 5622 01bd 273e a339 b1de 673d 31ac 1f3d
000000b0: c6f6 4d3d dfc5 a63d 9733 fd3b faf9 a33d
000000c0: 3df7 5ebd fc8c 65bd aaba e4bc b55c 313d
000000d0: 7ba5 44bc a147 c93c a32f 883c 4131 283d
000000e0: 976d ba3c 798e 103d ac35 b33d 247b 2eb9
000000f0: e9cf e7bb f290 8f3c daa6 883c d6d0 1a3d
00000100: 272f 2abc 32f7 1f3d 1e6d 93bc 4834 3b3d
00000110: 094e 6f3d 0f57 88bd 2277 743b e884 153c
00000120: d9d2 7b3d ada9 033d 19be 8c3c b39c 52bc
00000130: 09a4 52bd d1e2 f1bb 47da 0bbd 9cdf 403c
00000140: 90cf 933c 422d 4c3c 1eac 913d d77b 183d
00000150: c992 883b 54fc d0bc 3744 1abd 0236 5bbd
00000160: 5a00 0fbd bf9a dd3b e694 1d3d d50d f9bc
00000170: 3015 0d3d b283 cfbc 7be8 97bd 0471 62bd
00000180: 79e0 b33b 4ad1 853b 4377 03bd cb43 5a3d
00000190: f80a 95b9 e344 723c d642 ad3c 1ecf 12bd
000001a0: e8ae 433d ac23 89bc 9692 38bb 904b cb3c
000001b0: 5301 4d3d 1cb6 5b3d 648e e33c f9d2 9bbc
000001c0: eb4f b339 5232 22bc 7e7e 74bc 6658 f4bc
000001d0: 2636 51bb 83b1 113d 0d34 453d d2a2 7a3d
000001e0: c55d 41bb 13b9 333d 4fcf 1f3d c0f0 92bc
000001f0: d52c e8bc 7543 08bd e768 88bc 7275 c9bc
00000200: 305a 2a3d 87dc c1bc d627 1e3c 10a3 503d
00000210: b007 08bd 6e19 153d d807 6bbc 330f e4bc
00000220: 1808 73bc b075 453b 9813 123c 84e4 78bd
00000230: d670 83bc 3aad 22bd bbf5 7fbb b5de 7d3d
00000240: 462d b73c 43dc d03c 32e9 b73b a90a 0fbd
00000250: 1a1a 40bc 668b 0abd fa41 29bc 8639 7dbc
00000260: 3e61 333d 99e8 4c3d 526c 9fbc 96e5 13bd
00000270: e5ec 203d a003 6e3c c8c6 14bc 1ead 95bc
00000280: 24f9 26bc fbdc 063d e608 7a3d 3680 a13d
00000290: 3366 ccbb 8e2d c5bc 3d8d a83d e087 3a3d
000002a0: 8108 22bd aa9e 75bd 2c13 5b3c 94f6 6b3d
000002b0: 784f 6a3d a381 c73c efc9 c53d 5eaa 543d
000002c0: a0a6 013d ae37 973b 76bb 0c3d 904b 15bd
000002d0: 584e 543d b047 433d 290d cd3b ec6c cfbc
000002e0: e2ff e63c 1074 813d ac72 503d 5f6b a53b
000002f0: 6dbe ed3c 2686 ea3b 0801 303d 676c d13c
00000300: f9b1 adba 5029 26bd 868e 253d c6ef 813c
00000310: ffff b53c 2c0c 91bd 2ef9 95bc 482b c73b
00000320: dff2 3abb 98cb 63bd a19f dcbb e7a6 31bd
00000330: f0e0 85bb 35e2 70bc 1568 afb9 cd66 463d
00000340: fdbd d9bb 4274 0d3d 6093 2e3b ef0f 583d
00000350: 5b09 6e3d 48e2 b4bb 84a3 ca3a 1409 973c
00000360: b1cd 37bc efbd 93bb 234f 08bb 68e8 d13c
00000370: bebb f4bc 3c06 05bd a903 a7bb 6c34 c13c
00000380: 0d06 543d a7b9 35bb c056 2d3d ee9c fc3c
00000390: d4ba aebd a9d5 38bb bb29 bfbb 7a5c 843b
000003a0: 1090 acbc f77b bfbc 340e 773d 6a76 2c3d
000003b0: 5faf 8d3c 199d c23b 4cf2 2dbc b2bf 533c
000003c0: 02e2 4cbd c65e a4bc b566 393c ecd3 893d
000003d0: 99ef 573d a53e 713b 87ac 803c 0a8e 143d
000003e0: 9828 143d 9809 5bbc 2e4f 5e3c fdfe e63a
000003f0: 750d 863d 4f95 353d fb78 eabb f6ed 823c

bias f4 [32]
0.041217282 -0.020249607 0.03313564 -0.0005380286 0.06425944 0.007829918 0.023056483 0.073672004
0.022461245 0.018382736 0.02574698 0.009349462 -0.03966172 -0.019823577 0.04342856 0.032768544
0.009272345 0.018919613 0.04144094 0.021337302 0.031116853 -0.0021521046 0.050131667 -0.041121304
0.06846171 -0.020968843 0.04973126 0.022354156 -0.004465807 0.040982492 0.0516639 0.0034501813
00000000: 74d3 283d 81e2 a5bc 3db9 073d 7d0a 0dba
00000010: 749a 833d 0e49 003c f3e0 bc3c 59e1 963d
00000020: a500 b83c 6497 963c 55eb d23c 7c2e 193c
00000030: 5474 22bd 0e65 a2bc 25e2 313d 4f38 063d
00000040: 09eb 173c 4efd 9a3c fabd 293d 91cb ae3c
00000050: c5e8 fe3c 530a 0dbb dd56 4d3d d06e 28bd
00000060: a735 8c3d dac6 abbc 01b3 4b3d 1020 b73c
00000070: e855 92bb 42dd 273d 879d 533d 701c 623b

weight f4 [1, 32, 3, 3]
0.05587584 -0.013899219 0.013275985 -0.10666184 -0.12006203 -0.050213013 -0.04848014 0.014330622
-0.030941358 0.045507647 0.054713596 -0.031574797 0.024027217 -0.011608514 0.0068759755 -0.034133855
-0.061617184 -0.043899044 -0.06396399 0.004995928 0.028158028 0.07613349 0.07336873 0.0271977
0.03280997 -0.04404655 -0.018685164 0.06307108 -0.025711508 0.03109007 0.0066257077 0.046331372
-0.027038055 -0.0622049 -0.06474822 0.022330035 -0.004255143 -0.0038620078 -0.09852653 0.06570711
0.03311547 0.07634421 -0.05512697 0.012116088 0.024789514 -0.09602191 0.06257829 0.05768421
-0.07483298 -0.06780847 0.0050709574 -2.3829562e-06 -0.10139213 -0.078752734 -0.052315567 -0.10769992
0.016235005 -0.05820282 -0.08644483 0.03997281 0.025951745 -0.0834863 -0.019874701 -0.005086492
0.040020354 -0.04344097 0.0416443 0.10880843 0.024776157 -0.027050762 0.021598214 -0.028989853
-0.04618813 0.01826454 0.038893014 -0.09483522 -0.12856469 -0.049592976 0.024753414 -0.050623525
0.021128267 -0.1241172 0.013520269 0.0017213969 0.029885765 -0.06111623 0.05711908 0.05676904
-0.009242787 -0.059416484 -0.053635135 -0.06856413 -0.025562271 -0.05427888 0.09923177 -0.033437114
0.04107128 -0.025541404 -0.025964381 0.009218074 -0.10451328 -0.027367944 -0.012565692 -0.02995439
0.020643963 -0.034417305 0.045975905 0.03822991 0.023553336 0.082641944 -0.07286141 0.06760475
0.052432887 0.049149845 0.046321087 -0.044351134 -0.017613286 0.060448084 -0.010749773 -0.05164776
-0.053414162 -0.0353633 0.037608426 -0.04031696 0.024287492 0.06812466 0.034333136 0.025125809
-0.03057812 0.03501343 0.11203196 -0.016880099 -0.047161818 -0.043659773 0.0026861392 0.053240567
-0.07232084 0.03733046 -0.06731993 0.06503036 -0.013672315 -0.010204649 0.042129517 -0.038083304
-0.011876737 -0.055830274 -0.07919424 -0.06052208 -0.07248802 -0.08992198 0.06344783 0.07827224
0.0534436 -0.058527738 -0.051200002 -0.0075296424 -0.014782143 0.007625451 -0.06362114 0.0068717315
0.09028509 0.022572864 -0.0019622971 0.03594214 -0.086736694 0.031142885 0.07854344 -0.013017235
0.018970873 0.03670239 0.07131448 0.018477155 0.035436813 -0.10205037 0.04144245 -0.038061723
-0.062010888 -0.06277441 0.0020982318 0.06743791 -0.048277266 -0.06605167 -0.09392864 -0.028242916
-0.12484132 -0.07531479 -0.027383542 0.040297616 0.036253255 0.0044491263 -0.13391352 -0.09387085
-0.101675935 -0.0154008055 0.0037009434 0.07486065 -0.06025318 0.06013541 0.06649129 -0.055894222
-0.057601698 -0.05256881 -0.02678452 -0.13842796 -0.043529853 -0.07615071 -0.041606005 -0.043077547
0.026192492 -0.039168697 -0.072795406 -0.015084999 -0.047744162 -0.029244745 -0.057099488 0.053814545
-0.07083129 0.019761542 0.035193156 0.06872278 0.08987502 -0.021795755 -0.05405429 0.005209412
-0.0449381 0.027259251 -0.049771313 0.031228447 0.017219445 -0.05112255 0.058448296 0.021093618
-0.01740118 0.025223238 -0.06922209 -0.02620428 -0.05515931 -0.025454573 -0.15504979 0.03697447
-0.08156641 0.03178915 -0.027732633 0.032694407 0.044120885 -0.11224294 -0.022091055 0.02910588
0.04565793 0.04909423 -0.07564897 0.020589301 -0.037928052 0.06625748 0.040947177 0.046892665
00000000: 11de 643d 8db9 63bc 8483 593c 8671 dabd
00000010: 15e3 f5bd 29ac 4dbd 1c93 46bd fcca 6a3c
00000020: bb78 fdbc 3a66 3a3d 5d1b 603d 9354 01bd
00000030: bad4 c43c a331 3ebc dd4f e13b f1cf 0bbd
00000040: 4d62 7cbd 7ccf 33bd 8dff 82bd e2b4 a33b
00000050: aaab e63c e0eb 9b3d 5842 963d b6cd de3c
00000060: bf63 063d 286a 34bd a111 99bc 692b 813d
00000070: f1a0 d2bc 9ab0 fe3c 771c d93b f7c5 3d3d
00000080: e97e ddbc 91ca 7ebd b79a 84bd 7aed b63c
00000090: ba6e 8bbb bd19 7dbb 47c8 c9bd 7391 863d
000000a0: 16a4 073d 5a5a 9c3d d1cc 61bd 8e82 463c
000000b0: 6113 cb3c 23a7 c4bd 0c29 803d 4746 6c3d
000000c0: 0942 99bd 2bdf 8abd 462a a63b e0ea 1fb6
000000d0: ada6 cfbd 1d49 a1bd d948 56bd c791 dcbd
000000e0: 46ff 843c 1566 6ebd fd09 b1bd 87ba 233d
000000f0: c198 d43c defa aabd 45d0 a2bc 96ac a6bb
00000100: 62ec 233d 29ef 31bd 3793 2a3d f4d6 de3d
00000110: 5ef7 ca3c 8f99 ddbc bdee b03c 217c edbc
00000120: c42f 3dbd 849f 953c 484e 1f3d f838 c2bd
00000130: 76a6 03be 0122 4bbd acc7 ca3c 9d5a 4fbd
00000140: 3015 ad3c 2931 febd 1e84 5d3c 7fa0 e13a
00000150: fed2 f43c 0355 7abd b2f5 693d a786 683d
00000160: 0f6f 17bc b35e 73bd 84b0 5bbd 5a6b 8cbd
00000170: f867 d1bc 8853 5ebd 073a cb3d 5bf5 08bd
00000180: 5c3a 283d 353c d1bc 41b3 d4bc 6807 173c
00000190: 0f0b d6bd bd32 e0bc 55e0 4dbc e962 f5bc
000001a0: 871d a93c 29f9 0cbd 3b51 3c3d f796 1c3d
000001b0: edf2 c03c 2e40 a93d 5d38 95bd 5c74 8a3d
000001c0: dec3 563d 5951 493d 2ebb 3d3d 89a9 35bd
000001d0: bd49 90bc 6998 773d d11f 30bc 9a8c 53bd
000001e0: cfc8 5abd 1cd9 10bd 4b0b 1a3d 6623 25bd
000001f0: 90f6 c63c f184 8b3d e7a0 0c3d a4d4 cd3c
00000200: f77e fabc 3e6a 0f3d 0371 e53d 2248 8abc
00000210: c02c 41bd 97d4 32bd f009 303b c812 5a3d
00000220: f31c 94bd d3e7 183d 08df 89bd a32e 853d
00000230: d801 60bc 6631 27bc 0090 2c3d 3dfd 1bbd
00000240: a596 42bc 49ae 64bd 9730 a2bd 00e6 77bd
00000250: 9974 94bd 0429 b8bd f0f0 813d 324d a03d
00000260: ade7 5a3d c8ba 6fbd 18b7 51bd 38bb f6bb
00000270: cd30 72bc ebde f93b cd4b 82bd 432c e13b
00000280: 64e7 b83d baea b83c e299 00bb 1138 133d
00000290: 02a3 b1bd 5d1f ff3c 62db a03d 3e46 55bc
000002a0: ce68 9b3c 3f55 163d 530d 923d 675d 973c
000002b0: 3126 113d c9ff d0bd 8fbf 293d 9ce6 1bbd
000002c0: 21ff 7dbd df8f 80bd 7d82 093b e31c 8a3d
000002d0: 62be 45bd 1946 87bd a95d c0bd b05d e7bc
000002e0: ceac ffbd a43e 9abd 7353 e0bc 1d0f 253d
000002f0: 4b7e 143d fac9 913b a020 09be 5c3f c0bd
00000300: 793b d0bd a953 7cbc 878b 723b 8a50 993d
00000310: 0acc 76bd 8c50 763d 962c 883d 57f1 64bd
00000320: c2ef 6bbd 6452 57bd 366b dbbc 0fc0 0dbe
00000330: 5c4c 32bd e7f4 9bbd 0f6b 2abd 1572 30bd
00000340: a391 d63c 5b6f 20bd c215 95bd 1227 77bc
00000350: 628f 43bd ad92 efbc 27e1 69bd a46c 5c3d
00000360: ff0f 91bd f5e2 a13c b326 103d 87be 8c3d
00000370: 6510 b83d 038d b2bc 0868 5dbd b7b3 aa3b
00000380: 0311 38bd cb4e df3c 01dd 4bbd cdd2 ff3c
00000390: cb0f 8d3c e165 51bd 7b67 6f3d 86cc ac3c
000003a0: eb8c 8ebc f7a0 ce3c 50c4 8dbd 5caa d6bc
000003b0: bbee 61bd 1c86 d0bc 5fc5 1ebe 8b72 173d
000003c0: 4a0c a7bd 5735 023d 8c2f e3bc 92ea 053d
000003d0: 1ab8 343d a0df e5bd 4df8 b4bc 746f ee3c
000003e0: cf03 3b3d 0817 493d d9ed 9abd e5aa a83c
000003f0: 725a 1bbd 00b2 873d 3ab8 273d 8612 403d
